train_01/pnet.pt (torch_old, 32838 bytes, 21 tensors)

pre_layer.0.weight f4 [10, 3, 3, 3]
00000000: 3076 b8bf 4059 21c0 aca1 6cbb eb5d 42bc
00000010: 6247 c43d c130 cc3f 57a2 ab3f 7050 853f
00000020: a6a7 c63f 60c0 41bf c3ce f9bf 36a4 093e
00000030: 5975 3cbf c416 fc3c d476 c23f 2250 21bd
00000040: 24f5 a73d 6573 a4bd 76f4 4f3f c3a3 99bf
00000050: 13ec e13e b67c ef3e c544 173c 941e cc3f
00000060: ea04 e13e f459 a7bd 59e1 3e3e 043d 13bf
00000070: aa4f 2d3f 0e43 fabf d774 2ebe dfe2 e23d
00000080: 7e94 2abf 8f4c bfbf b1f6 84be 17fe 003f
00000090: 7fa8 973f 9091 913f ac71 e9be 496e 6d3f
000000a0: 305c 10c0 d495 debe 4bca 07be 7d28 33bf
000000b0: f17f fc3f d810 293f b20f c33e 60e9 fcbf
000000c0: 88b7 b43f c198 a4bf cbbe b5bd 0353 13bf
000000d0: a345 55bf 9d97 903d 8646 c8be 329b 94be
000000e0: 3753 de3d 023d b0be 184b c7bf ba97 adbf
000000f0: 72a2 9f3f 0936 be3f 8a14 a43f 6cd5 4bbe
00000100: cbd2 783e d766 433e 7403 a8bf 893f fcbf
00000110: 23f2 0ac0 172a 9f3f 91e3 c43f 2acd 9e3f
00000120: ad1b 9e3e c955 6dbd 11e6 873d 6e3a 27bf
00000130: 1997 78bf 4dce 66bf 1e29 413f 6a93 863f
00000140: ec14 5a3f e1d7 75bd addc 1a3f 0e42 23bf
00000150: 365b 71bd 06c1 0140 c900 a73f 8d80 b2bf
00000160: 24ca a7bf 02fe 07bf 597f 983f feee fe3e
00000170: 4cdb 30bf 471e e33c ba4b eb3f 37df 6e3f
00000180: b941 83bf e595 01c0 1108 85bf cb25 5a3f
00000190: 833c fcbe 194c 7abf 3451 0ebe df1f a63f
000001a0: 9c61 d13f 4487 53bf 8c8f a7bf bd0b 563d
000001b0: 291e 753f 9c3f b2be ca21 4abf b233 7e3f
000001c0: 3841 91bf d8a0 41bd a16c 9f3f b921 b8be
000001d0: cff1 9e3f 6ac8 bb3f ea44 00be 4721 42bf
000001e0: ab46 b43f d69c a7bf 4209 cebe 1b4e 883e
000001f0: d27f dfbf 33c1 7f3e 178b 8f3f 9367 14bf
00000200: 840f 0a3d dc49 103e 85fd 21c0 cabf 03bf
00000210: 2350 823f 7956 d03b c4f9 d63f ed72 febe
00000220: d196 a6be efa3 40bf 0bdc c3be 16ee abbf
00000230: 98a0 e8bf e297 47bf 6fc0 97bf 7d0c 0ec0
00000240: dc90 2d3d e12a 963f d918 ad3f ec82 ad3e
00000250: 9f71 3c3f d17b af3f 0c2c 163f 3207 0340
00000260: be64 1c40 328c 8fbe d460 16be 46bf 5dbe
00000270: 62f5 df3e 6339 a43e 2950 983e 2a43 fcbc
00000280: 7014 55bd 3f86 80be 1ac8 4abf fee8 6a3f
00000290: ac2c 34be ba9c 7b3f b885 0540 6c08 833d
000002a0: 0f54 383f 0c29 0abe e111 9ebe 9428 01c0
000002b0: 02ca 223e 73d8 9d3c 57b3 29c0 824b 76bf
000002c0: 21d3 c7bf ceef 00c0 ec94 bebf cf36 3fbe
000002d0: b9bc b73f 377d ba3e 9cc0 ca3e 6ffd 4e3f
000002e0: 1ee4 563e f826 a9bd 7c3d b33f 566f d3be
000002f0: f756 223f 3a43 9e3f 8e18 bebd 6d73 93bf
00000300: af5d 133f 8ef2 f13e abd4 25c0 4ea7 153f
00000310: a187 f13f 547f cfbe 1aa0 0b3f 3759 a3bf
00000320: be3f 7cbf 6962 a33f 8ae7 3f3f 18eb a8bf
00000330: 72f8 dbbe a412 723f 1825 f3be 5f51 df3e
00000340: 5bab bbbf 1c2f 82be cc2d 9f3f 72d0 6b3e
00000350: 4858 1cbf 0cb6 a23e c860 543f 643f 043f
00000360: f9b2 623f 7a8a ba3f 63e7 f23f 3f4a 6e3f
00000370: a941 143e 906d 51bf 3edc 06bf ebfa a1bf
00000380: 9843 97bf 7a58 b73c 8cf8 853f 15ee 203f
00000390: 063a 7f3f c28c 193d c2f2 ebbf 52bb 5abf
000003a0: ffe1 bcbf eb7b d6bf 2aa5 b1bd 0baa b93f
000003b0: e1c4 533f 4a9b ad3f 4ecd 4a3f 68df 6abf
000003c0: 0b35 213e 4126 03bf d75d ffbe 7200 96bf
000003d0: 03e3 6abf ca4d df3d f474 d93e d952 39bf
000003e0: 69a1 1240 52ba 4b3f 2a33 bcbf f73b 6a3f
000003f0: 7f67 94bf af1b 4f3d 4861 5b3f bca1 85be
-1.4411068 -2.5210724 -0.0036107106 -0.011863212 0.09583928 1.5952379 1.3408917 1.0415173
1.5519912 -0.75684166 -1.9516224 0.13441548 -0.7361656 0.030772574 1.5192513 -0.03938306
0.08201054 -0.08029822 0.8123239 -1.2003101 0.44125423 0.46774834 0.0092327045 1.5946832
0.43949062 -0.08171454 0.18640651 -0.5751498 0.6769968 -1.9551713 -0.17036758 0.110784285
-0.6663283 -1.4945239 -0.2596946 0.5038771 1.1848296 1.1372547 -0.45594537 0.92746407
-2.2556267 -0.43473685 -0.13260762 -0.69983655 1.9726545 0.66041327 0.38097912 -1.975872
1.4118509 -1.2859117 -0.088742815 -0.5754854 -0.8330938 0.07060168 -0.39116305 -0.29024655
0.10855716 -0.34421545 -1.5569792 -1.3561928 1.2471449 1.486024 1.2818768 -0.19905633
0.24299161 0.19082199 -1.3126054 -1.9706889 -2.1710289 1.243472 1.5381948 1.2406361
0.3088049 -0.05794314 0.066356786 -0.6532353 -0.97105557 -0.9015854 0.75453365 1.0513737
0.85188174 -0.06002033 0.60492975 -0.63772666 -0.058924876 2.0274062 1.3047115 -1.394548
-1.3108563 -0.5312196 1.1913863 0.49791712 -0.6908462 0.027724398 1.8382485 0.9330935
-1.0254432 -2.0247738 -1.0393087 0.8521392 -0.49264917 -0.97772366 -0.13898164 1.2978476
1.6357913 -0.82628274 -1.3090682 0.05225729 0.95749146 -0.34814155 -0.7895781 0.9929763
-1.1348028 -0.047272533 1.2455026 -0.35963228 1.2417544 1.4670537 -0.12526289 -0.7583203
1.4084066 -1.3094738 -0.40241438 0.2662209 -1.7460883 0.24976043 1.1214322 -0.5797054
0.033706203 0.14090675 -2.5310986 -0.5146452 1.0180706 0.0063579646 1.6794972 -0.49697056
-0.3253694 -0.7525014 -0.38253817 -1.3432033 -1.8174009 -0.7796613 -1.1855601 -2.2195122
0.042374477 1.1731836 1.3523208 0.33888948 0.7361087 1.3709661 0.5866096 2.0473142
2.4436488 -0.28036648 -0.14685374 -0.21654996 0.437419 0.32075033 0.29748657 -0.030793745
-0.052021444 -0.25102422 -0.7921158 0.9176177 -0.17595166 0.9828602 2.0862865 0.06398091
0.72003263 -0.1349222 -0.30873016 -2.0181017 0.15897372 0.01926825 -2.651571 -0.96208966
-1.5611306 -2.0146365 -1.4889197 -0.18673252 1.4354469 0.36423656 0.39600074 0.8085546
0.20985457 -0.08259386 1.4003139 -0.4129588 0.6341395 1.2364266 -0.09282027 -1.15196
0.57564825 0.47255367 -2.5911052 0.5845841 1.8869516 -0.4052683 0.5454117 -1.2761601
-0.9853476 1.2764407 0.74962676 -1.3196745 -0.42962986 0.94559693 -0.47489238 0.4361677
-1.4661669 -0.25426567 1.2435851 0.23028734 -0.61072206 0.31779516 0.82960176 0.51659226
0.8855434 1.457351 1.8976864 0.9308204 0.14478172 -0.81807804 -0.5267981 -1.2654699
-1.1817503 0.022381056 1.0466475 0.62863284 0.9969791 0.037487753 -1.8433459 -0.8544208
-1.4756469 -1.6756567 -0.08674081 1.4505018 0.8272229 1.3563015 0.7921952 -0.9174714
0.1574289 -0.51230246 -0.49876282 -1.1718886 -0.9175264 0.10903509 0.4247204 -0.7239204
2.2911017 0.7958118 -1.4703114 0.9149775 -1.1594085 0.05056351 0.85695314 -0.26099956

pre_layer.0.bias f4 [10]
00000000: 5935 f8be 3d85 ee3d 84d1 3cbf 6cd6 78bf
00000010: 89aa 34bf 96b4 c23e 8ba2 973e 68f7 06be
00000020: a6de 4ebf 1206 3ebf
-0.484782 0.11646507 -0.73757195 -0.9720218 -0.70572716 0.380284 0.29616198 -0.13180315
-0.80808485 -0.7422801

pre_layer.1.weight f4 [10]
00000000: 6008 903f 9a4d 673f 13ca c13f b0d5 863f
00000010: f279 5c3f f29b 983f e09a 5b3f 62cb 933f
00000020: beed 983f 9f61 833f
1.1252556 0.90352786 1.5139793 1.0533962 0.86123574 1.1922591 0.85783195 1.1546443
1.1947553 1.0264167

pre_layer.1.bias f4 [10]
00000000: 1096 6a3e e257 8f3f 7df2 e9be 7791 b23d
00000010: 6ee7 033f a0e3 083f 8ce3 0dbf 2967 473c
00000020: c525 a73d a5f9 763e
0.22908807 1.1198695 -0.45692816 0.087191515 0.5152501 0.5347233 -0.55425334 0.012170591
0.08161501 0.2411867

pre_layer.1.running_mean f4 [10]
00000000: a091 ef3e 2f83 00c0 a692 adbf 4577 36bf
00000010: 718f 09bf bf74 38bc 0b0b 01bf 1bd5 553e
00000020: 9a3f a7be 17e4 86bf
0.4679079 -2.0080068 -1.3560379 -0.7127574 -0.537345 -0.011258303 -0.50407475 0.20882075
-0.32665712 -1.0538357

pre_layer.1.running_var f4 [10]
00000000: 38be 6b40 84c6 0c40 6fde 3c40 2ac8 1a40
00000010: c755 1940 35c5 9a3f 8e32 543f fab4 7140
00000020: 4557 9140 bd9b 0740
3.683485 2.1996164 2.9510763 2.418467 2.3958604 1.2091433 0.8288964 3.776671
4.541903 2.1188805

pre_layer.4.weight f4 [16, 10, 3, 3]
00000000: c9d7 f13e 66e1 ca3e 4c4a 9dbf d06a cd3c
00000010: a125 8ebe 0b55 d8be ebae 313f 4aeb 19bf
00000020: 00dd 113c 4445 27bf d490 253f 0d8d 983f
00000030: 9565 013f a687 e73e 0955 adbf 9b9d 313f
00000040: 1412 8cbf 2629 3ec0 ee18 0a3f 2a68 693d
00000050: 7422 dc3d 35a8 fe3e 04b5 ebbe dfc8 143f
00000060: 7ced 6ebe a932 62be 2bfa bb3e 3093 2abf
00000070: 9f68 813f a2e4 973f b5d2 b2bf 751f 2cc0
00000080: 4fd6 003f baa6 1dbd ed5f f8bf 5eb8 93bf
00000090: 02fb 7d3f 4303 853d f24a e73c dadc ddbe
000000a0: fa46 10bf 976f 16bf d1ca 843f 86e6 2d3f
000000b0: eab7 983f 8370 ee3d c28e dcbe 7fb5 dd3e
000000c0: b256 5fbf d1b5 b4bd c308 753f a1a6 0b3d
000000d0: 3011 96bc ee3d f3be 502b 713f 3eb3 63bf
000000e0: 51e1 933f da4f 513e f092 09be b7c2 2b3f
000000f0: 7531 46bf 97ab 7dbf 20da 9a3f e5cf cf3e
00000100: 4bfc 163f eba3 92be 2e81 86be 2045 803e
00000110: 25e3 933f 8eab 423e d06d 0540 98b7 be3f
00000120: 02b9 bebf cb0f ac3f fced 993c 43bf 03bf
00000130: 6e5b 4e3d ddd3 8cbf 5100 afbf 65b8 c0c0
00000140: 2369 b7bf 5636 863f 5d51 a2be b994 5d3c
00000150: 60b8 4bbd d9b7 9cbe 0578 843f d9dd d8be
00000160: 7c52 413e ec0e 0dbf 94b0 1d3f 83b1 72bf
00000170: 27c6 253f 9aa5 aa3d 61eb 93bf e08c f1bd
00000180: 551a ab3f 2f92 9d3f c841 ba3d 712e 933f
00000190: a1d5 f23e 0ce3 4f3d 4e77 11bf d2c4 febe
000001a0: 3e01 a7bd d2b6 083d 5651 083f 8a71 0ebf
000001b0: 26e2 a6bf e81a 3f3f a84a 383f 376a 1fbf
000001c0: aa96 3f3d 5468 eabe 3056 e43e 4168 5f3e
000001d0: 1957 ff3e 55e8 c23c b5fe 1ebf 4601 d73e
000001e0: 5606 8bbe 6858 9c3f 9fb9 e73d 4428 19bf
000001f0: 765b 59bf 67bd 0b3f 9cf8 0cbf 772e abbf
00000200: b88a 04c0 6871 853f 4710 583f 8685 5b3f
00000210: 1218 be3e 35c1 583f 0f60 e13e f8c5 a23f
00000220: e00d b03f b39f 0140 b843 0d3f d00e 183f
00000230: 141b ab3d 4e93 44c0 ebf0 03c0 865a 4cbf
00000240: dd81 e23e cdd2 b0bd d131 3840 fe70 443f
00000250: c4ec 0dbf ff77 0e3f 22b0 51bf ad33 a4bf
00000260: ae6e f2bf 8d10 a6bf bdca b83f eeed 273f
00000270: 1989 d2be 2b39 8c3f c41c af3e be8f 8d3d
00000280: b430 623f 6b14 68be 154b 403f 8430 8dbe
00000290: b191 abbf 0f5c 533f cdc1 04bf bf33 1f3f
000002a0: 3c56 8a3e 5762 5dbd c2e0 363b 099b 17c0
000002b0: 0744 16c0 27dc e7bd dc5e 8d3f 8642 253f
000002c0: ebca bdbd 0197 cebf 1ac1 6abb 889f f83e
000002d0: 3d3f 13bd 3b6a 223f 91f4 15bf d046 21c0
000002e0: d9cf f9bf 40a7 233f 0809 adbf 2493 403f
000002f0: ee2a e63e d79c a4bf 5eec fbbd 7068 f03e
00000300: 53fa 32be 97fe 35be 82f0 1d3e 76ec 52be
00000310: 24ca af3e ca68 f7be ab42 9bc0 2244 853e
00000320: 9563 b03e 7ada 4abf 7f55 b63e c5e7 f03e
00000330: 9def 93be 6347 d03e 10d3 da3c dc47 4cbe
00000340: c7af d3bd a66b b13e 9ff5 6cbf 8231 b43f
00000350: 4cba 053e 04fc 8cbe f948 b93f ab30 0a3f
00000360: 15be b7be 4011 843f 14d0 a1be c678 903e
00000370: 97ed 903f 036c b53b 9eb4 413e d1a1 0ebf
00000380: 2e68 4bbf 745a 33bf c29b 953f 9cd1 33bf
00000390: aed6 5ebe a136 70bf a16c 2b3e 54fa 473f
000003a0: d705 36be 9ffe a3bc a7f4 09bf 6714 e33e
000003b0: 0019 493f 3407 d63f dae8 e8be 938a 7d3f
000003c0: e08d 9d3f b82c d2bf 3d20 a8bf 37e2 133f
000003d0: 0452 d43f 9e29 95bf 1bf0 8e3f 68ed 163f
000003e0: 6348 4dbe 7553 ad3f 4280 153f c3bd 96be
000003f0: d82f e9bf 5afb a1be 6ca3 8c3f ef55 6ec0
0.47234944 0.3962509 -1.2288299 0.025075346 -0.27763084 -0.42252383 0.6940753 -0.6012465
0.008902788 -0.65340066 0.64674115 1.1918045 0.50545627 0.4522068 -1.3541576 0.6938111
-1.0943017 -2.9712615 0.5394429 0.056984104 0.10748759 0.49737707 -0.4603654 0.58119005
-0.2333278 -0.22089638 0.367143 -0.6663084 1.0110053 1.1866648 -1.3970553 -2.68942
0.5032701 -0.03848908 -1.9404274 -1.1540639 0.9921113 0.06494763 0.028233979 -0.4333256
-0.563583 -0.5876402 1.0374395 0.67929876 1.1931126 0.11642554 -0.43077666 0.43302533
-0.8724166 -0.08823741 0.95716494 0.034094457 -0.018318743 -0.47508186 0.94206715 -0.88945377
1.1553136 0.20440617 -0.13434958 0.67093986 -0.77419215 -0.9908995 1.2097816 0.40588298
0.5897872 -0.28640684 -0.2627043 0.25052738 1.1553694 0.19010755 2.0848274 1.4899778
-1.490021 1.344232 0.018790238 -0.5146372 0.050380163 -1.1002156 -1.3671972 -6.022509
-1.432896 1.0485332 -0.317027 0.013524228 -0.04973638 -0.30609015 1.0349127 -0.42356756
0.18879122 -0.55100894 0.6159756 -0.9480211 0.6475548 0.08332367 -1.1556207 -0.11794448
1.3367411 1.2310237 0.09094578 1.1498548 0.4742861 0.05075364 -0.5682267 -0.49759537
-0.08154534 0.033377476 0.5324911 -0.55641997 -1.3037765 0.7465043 0.71988916 -0.62271446
0.046774544 -0.4578272 0.44597006 0.21817113 0.49871138 0.023792425 -0.621074 0.4199316
-0.2715327 1.221448 0.11314701 -0.59827065 -0.84905183 0.5458588 -0.5506685 -1.3373555
-2.0709667 1.0425234 0.8439984 0.85750616 0.3712774 0.8466981 0.440186 1.2716665
1.3754234 2.0253723 0.55181456 0.593976 0.08354774 -3.0714908 -2.0615795 -0.7982563
0.44239703 -0.08633957 2.8780406 0.7673491 -0.554394 0.5565185 -0.8190938 -1.282827
-1.8940027 -1.2973801 1.4436871 0.65597427 -0.41120222 1.0954946 0.34201634 0.06912182
0.88355565 -0.22664039 0.75114566 -0.27576077 -1.3403836 0.82562345 -0.51858217 0.62188333
0.27018917 -0.054048862 0.0027904962 -2.3688376 -2.347902 -0.113212876 1.1044574 0.6455463
-0.09267219 -1.6139833 -0.0035820664 0.48559213 -0.03594898 0.63443345 -0.58576304 -2.519947
-1.9516555 0.6392708 -1.3518381 0.7522452 0.44954628 -1.2860364 -0.12300943 0.4695468
-0.17478304 -0.177729 0.15423778 -0.20598015 0.3433391 -0.48322135 -4.851888 0.26028544
0.34450975 -0.7923962 0.35612103 0.47051826 -0.28893748 0.40679464 0.02671197 -0.19949287
-0.10336261 0.34652442 -0.9256229 1.4077609 0.13059348 -0.27536023 1.4475394 0.5398051
-0.3588721 1.0317764 -0.31604064 0.28217143 1.1322507 0.0055365576 0.18916556 -0.5571566
-0.7945584 -0.70059896 1.1688159 -0.70241714 -0.21761581 -0.9383336 0.16740657 0.78116345
-0.17775665 -0.020018874 -0.53888935 0.44351503 0.7855377 1.6720948 -0.45490152 0.9903957
1.2308922 -1.6419897 -1.3134838 0.5776705 1.6587529 -1.1653326 1.1167024 0.58956003
-0.20047145 1.3541094 0.5839883 -0.29441652 -1.8217726 -0.3163708 1.0987372 -3.723995

pre_layer.4.bias f4 [16]
00000000: 6f1c 3b3d f573 f93d be0e ab3e d7c9 a83e
00000010: fe81 933e d31a fabe f634 72bd 57ce bdbe
00000020: 67e9 5f3e 5a7d bebe 49a4 9dba 159a cd3e
00000030: 7c58 babe b5b3 723d c3d4 403e bac6 8cbe
0.045681413 0.1218032 0.33409685 0.32966492 0.28810114 -0.4884859 -0.05913254 -0.37071487
0.2186638 -0.3720501 -0.001202711 0.40156618 -0.36395633 0.059253413 0.18831162 -0.27495366

pre_layer.5.weight f4 [16]
00000000: 7022 c63f 7530 6b3f db75 bd3f 8575 a33f
00000010: 79fb 7d3f c92f d53f 1742 ae3f fdc5 ce3f
00000020: fb69 ff3f 72aa ab3f 7839 653f 9931 8a3f
00000030: ec69 9e3f d030 a83f 829a 923f f92d 913f
1.547926 0.91870815 1.4801592 1.2770239 0.9921184 1.6655208 1.3613919 1.6154171
1.9954218 1.3411391 0.89540815 1.0796386 1.2376075 1.3139896 1.1453402 1.1342155

pre_layer.5.bias f4 [16]
00000000: d36e eebe 33d2 2d3f affa 0dbe 5922 213f
00000010: fb8e 7e3e 77fe d8be 0cca 6ebe ed7a 3ebf
00000020: d636 ae3b 685d 2dbf 90fe 453f e367 65bc
00000030: 6246 03bf 4df5 a33d 19ff 283f 6e31 cf3d
-0.46568927 0.67898864 -0.1386516 0.62943035 0.2485923 -0.4238164 -0.23319262 -0.7440632
0.0053165955 -0.6772065 0.77341557 -0.014001819 -0.5127927 0.08005772 0.6601425 0.1011685

pre_layer.5.running_mean f4 [16]
00000000: bccb ebc0 28fe 393f 27ce 8ec0 ff0b c340
00000010: 2881 b5c0 e51b 67c1 4cc8 1b41 00e8 dfc1
00000020: efed 89c0 e5fd dac0 ccb8 9e40 14db 36c0
00000030: 1906 f1c0 8611 b4bf 78d7 3f41 1fcd 8ec0
-7.36862 0.72653437 -4.462665 6.0952144 -5.672016 -14.44431 9.736401 -27.988281
-4.3102946 -6.843493 4.960058 -2.8571215 -7.5319943 -1.4067848 11.990105 -4.462539

pre_layer.5.running_var f4 [16]
00000000: 04e6 b442 a006 d441 a733 0f42 3214 2342
00000010: 5e09 cc41 0773 a042 542f 3142 8372 8342
00000020: 4a48 be42 30ef 5642 b7e6 0942 dbaf 1542
00000030: 3078 2342 442b 1842 d442 4e42 5339 0742
90.44925 26.503235 35.80044 40.769722 25.504574 80.22466 44.29622 65.723656
95.14119 53.73358 34.475307 37.421734 40.86737 38.04225 51.56526 33.80598

pre_layer.7.weight f4 [32, 16, 3, 3]
00000000: be62 3140 b5b6 02c0 8d76 e93e c22e cd3e
00000010: 93e2 7cbf 6a4e 4a3f 18e0 50bf 1f21 44bf
00000020: ac91 893f d5e6 b63b 5ba4 f03e f4c9 cb3d
00000030: 806e 1ec0 baf5 0dbf 5160 413c 36d1 64bf
00000040: 5a11 35bf 2eb9 a3bf e152 bf3d ea8e b6bf
00000050: 11b4 35bf e6f4 13bf e771 babf 4b1f d7bf
00000060: 1880 31bf e547 0ebf 130d 65be b0ee 03c0
00000070: 3813 24bc d8df 83be ad84 2cbf 5d19 1b3e
00000080: 4d01 12be 3e77 f9bf f796 68bc 8833 38bf
00000090: 6e62 d6be 35c1 20bf 0271 353f 465a 883e
000000a0: c360 343f 0fc1 943e 8be2 333f ad71 4e3f
000000b0: f6cf 22be 5c9d d0be b16f f83c ffbe a53f
000000c0: c847 c73f 320f c73f b77d c33f b8b6 1e3f
000000d0: 7277 663f e82d 98bf 7918 b4bd 3a7d ccbf
000000e0: 3e1f 043f b251 313f 1f76 1c3f ace4 42bd
000000f0: bb9d ca3f 215e 48bf 923b fabf 29f1 553f
00000100: 8e2d a8bf 20e6 cb3e ae39 663f c521 c6bc
00000110: 6adc d63f e171 673d 2e92 0440 2fb0 0240
00000120: 3895 3b3f ddaf ca3f de9a 303f e57f 0740
00000130: 2038 163f 3cbf c4bd 35f5 9a3d 3e15 ab3f
00000140: a4a1 c3bc be62 813f 6d37 373d ac52 ac3e
00000150: b69f 5fbc da79 8d3f 3f36 10be 7454 0cbe
00000160: fa32 173e 3a19 31c0 65c2 1bbb 32ee 53bc
00000170: c0b9 8cbe 7f1b abbe 4fa7 aa3f d4a4 de3e
00000180: 5bea 20bf dd1f 0cbd 533f 0740 b36f cb3e
00000190: 381c 8bbe ab79 7b3f e100 01bd 3cac cf3e
000001a0: 82db 36be 508a 6cbc 2e9c a33f f262 c93f
000001b0: c169 3d3e 5fc3 013f 2aa2 01c0 e44c 4f3c
000001c0: 5450 88bf 86b4 6c3e 4ea7 b83d 95fc dbbe
000001d0: 8c54 95bf f71b ccbe df1c a03f b051 d63f
000001e0: fed2 a4bd ff26 6a3f e8b3 4e3f c01c 5c3f
000001f0: ed83 a23f b31f 11bf cdec 34be 2404 e93e
00000200: c395 eb3e e897 2bbf dd44 7d3f dd93 efbe
00000210: d041 03bf 8955 1fbf c227 c1bf 8bb9 b13f
00000220: 6109 5e3f a2f3 cebc 6c38 07bf 938f c2be
00000230: 619d ec3d 331f a2be 9e14 0ebc 0f14 8fbf
00000240: 7daf d0be 063a 533f 1cb0 c7bf 35a5 1a3f
00000250: e5a5 2abe 3f71 fabe e176 3a3e d1ca 17bf
00000260: ec8a 7cbe 6324 13bf df70 0c3f f098 0440
00000270: 2898 273f 2fa3 4d3e be83 b13f 9f97 813f
00000280: 53a0 2fbf 3bad 44bf 094e 1340 64c3 5d3e
00000290: d9ad 88bf e03b 003d 2ce9 c4be 33ba d2bc
000002a0: 6371 2fbf 6f5a babe 9899 f8bf 087a b23f
000002b0: 3e50 613f 910d e5be fcbb 89bf 893f 85bf
000002c0: cbc5 8a3e 865b 8bbf 1839 72be e145 b5bd
000002d0: ad39 59be ffc4 dabf 2723 c5bf 9a14 cb3e
000002e0: 9c8b 8fbf d7aa 1ebf ce36 9abf 5bea f4bf
000002f0: 5f3e d7bf da71 93bf 0493 21be a23e 823e
00000300: 4993 b4be acd4 1c3f 5135 4e3f 2a0c ea3e
00000310: 334f b23f 2d8b a03f 3b9f b63f 7284 273f
00000320: 1d23 bebf c70b fc3e fd94 21bf f6da bdbe
00000330: 30f3 b43f 922d 2f3e 3c5a 5b3d 4ea9 6e3f
00000340: 0e61 4bbf b99d 213e 031b 9fbe 4883 2c3f
00000350: ce29 753f ffca 43bf c307 013f 52a1 9b3f
00000360: 2d08 0940 0964 833c ed3f 393f 4808 dd3f
00000370: 2264 1fbf 5f79 6c3e 0c89 9f3f 9400 38bf
00000380: 2d93 97be 5e9b b63f bb56 093f d05a 72be
00000390: e84e 053f 5224 8b3f 6b93 6bbf 9cdd 343e
000003a0: 3b87 793e d220 d13d eef5 ab3e af03 dd3d
000003b0: 0618 113f 528b 72bf 974d 7ebf 40a5 d5be
000003c0: dbdd e7be 081c e1bf 57cb 1abf db11 6bbf
000003d0: 628e 973f c514 07be 8e62 16bf 0dcd 1e3f
000003e0: fd58 b0be 428a 1abf 9468 04be 6c4d e3be
000003f0: 01cd 36be b010 b0be 01a1 bebf 74d3 b7be
2.7716517 -2.0424016 0.4559826 0.40074736 -0.98783225 0.790259 -0.8159194 -0.7661304
1.074758 0.0055817165 0.47000393 0.09950629 -2.4754944 -0.55453074 0.011802749 -0.8938173
-0.707296 -1.2790887 0.0934198 -1.4262364 -0.70977885 -0.5779556 -1.456601 -1.6806425
-0.6933608 -0.5557845 -0.22368269 -2.0614433 -0.010014348 -0.25756717 -0.6738995 0.15146394
-0.14258309 -1.9489515 -0.014196149 -0.7195363 -0.4187197 -0.6279481 0.7087556 0.26631373
0.70460147 0.29053542 0.7026755 0.80642205 -0.15899643 -0.40745056 0.030326696 1.2948912
1.5568781 1.5551512 1.527274 0.61997557 0.9002601 -1.188901 -0.0879373 -1.5975716
0.5161017 0.6926528 0.6111774 -0.04758136 1.5829386 -0.7826863 -1.954943 0.83571106
-1.3138902 0.3982401 0.8993176 -0.024186024 1.6786015 0.056505088 2.071422 2.0420034
0.73274565 1.5834919 0.6898631 2.117181 0.5867939 -0.096067876 0.07566301 1.3365858
-0.023880787 1.0108259 0.044730593 0.33656824 -0.013648918 1.1052811 -0.14083193 -0.13704091
0.1476554 -2.7671647 -0.0023766991 -0.012935208 -0.27485466 -0.33419415 1.3332309 0.4348513
-0.628576 -0.034210075 2.11324 0.39733657 -0.27169967 0.98232526 -0.03149498 0.40561092
-0.17857173 -0.014437273 1.2782037 1.5733321 0.18497373 0.5068874 -2.0255227 0.0126526095
-1.0649514 0.23115739 0.09016286 -0.42966142 -1.1666427 -0.39865085 1.2508811 1.6743679
-0.08048056 0.91465753 0.80743265 0.8598137 1.269651 -0.56688994 -0.17668457 0.45510972
0.46012697 -0.67028666 0.989332 -0.46792498 -0.51272297 -0.6223989 -1.5090258 1.3884748
0.8673306 -0.025262658 -0.5282047 -0.38000163 0.11553455 -0.31664428 -0.008671908 -1.1177996
-0.40758887 0.8251041 -1.5600619 0.60408336 -0.16664846 -0.48914525 0.18209411 -0.5929385
-0.2466237 -0.57477397 0.5485973 2.0718346 0.65466547 0.20081781 1.386833 1.0124396
-0.6860401 -0.7682683 2.301638 0.21656567 -1.0678054 0.0313071 -0.38459146 -0.025723552
-0.6853239 -0.3639712 -1.9421873 1.3943491 0.88013065 -0.44736913 -1.0760493 -1.0410014
0.2710403 -1.0887306 -0.23654592 -0.08851219 -0.21213408 -1.7091368 -1.5401353 0.39664155
-1.121448 -0.6197943 -1.2047975 -1.913402 -1.6815909 -1.151912 -0.15778738 0.2543841
-0.3526862 0.6126201 0.80550104 0.45712405 1.393042 1.2542473 1.4267343 0.6543647
-1.4854466 0.49227735 -0.63117963 -0.37081116 1.4136715 0.17107227 0.05355285 0.9322709
-0.7944497 0.15782823 -0.31075296 0.6738782 0.95766914 -0.7648162 0.5040247 1.2158606
2.141124 0.016038911 0.7236317 1.7268152 -0.62262166 0.23093174 1.2463698 -0.7187588
-0.29604474 1.4266164 0.53647965 -0.23667455 0.52073526 1.0870459 -0.92021817 0.17662662
0.24367993 0.10211338 0.33586067 0.10791718 0.5667728 -0.94743836 -0.9933714 -0.41727638
-0.4528645 -1.758668 -0.6046652 -0.9182412 1.1840327 -0.13191517 -0.5874413 0.6203163
-0.34442893 -0.60367215 -0.12930518 -0.44395006 -0.1785164 -0.34387732 -1.4892884 -0.35903513

pre_layer.7.bias f4 [32]
00000000: cbc0 a43d 77d2 a3bc b44e ba3d cf9f 92bd
00000010: 9318 023e 1bb3 003c b2e3 f33d e073 043d
00000020: 6b67 113e 5786 9abc e546 673c 71e0 5a3d
00000030: ea96 81bc 5004 bf3d fbf8 ea3d 3ef3 763d
00000040: 74d5 f1ba ada2 b03d 548d 67bd 75dd 633d
00000050: 7069 6ebd 675d 063b 3a8a 913d c0f9 083e
00000060: 9ab1 913d 561c edbc 654f 8cbd a19a 32bd
00000070: 432a acbd 9fbe 283e b68f ed3d 8b5a 8ebd
0.08044585 -0.019997818 0.09097043 -0.07159387 0.12704687 0.007855202 0.11908664 0.03233707
0.14199607 -0.018862886 0.014116024 0.0534367 -0.015819032 0.093269944 0.114732705 0.060290568
-0.0018450455 0.08624778 -0.056531265 0.05563112 -0.05820602 0.002050245 0.07106443 0.13376522
0.07113953 -0.028944176 -0.06851081 -0.043604497 -0.08406498 0.16478966 0.11599676 -0.069508635

pre_layer.8.weight f4 [32]
00000000: f360 9a3f 5fb7 5d3f 391b 613f f428 e23e
00000010: 1869 933f ec48 5b3f e5ae 5e3f 2a4c 1e3f
00000020: 2f77 a53e f2e2 0abf c481 c23e 691d 7b3f
00000030: d41a 7d3f 9fe0 3e3f 6d4f c73e baf2 923e
00000040: 7e87 6f3f 83a7 463f 2558 543f a91f 653f
00000050: e627 743e 1a16 0b3f c9ef 3c3f 7e0a cf3e
00000060: 0803 8e3f cbc8 873f 000a 773f 9347 6c3f
00000070: d31e 593f 0d75 183f 6bfb 0a3f 8a2a 573f
1.2060837 0.8660793 0.87932163 0.4417187 1.1516447 0.85658145 0.8698562 0.6183497
0.32317492 -0.5425254 0.37989628 0.9809175 0.9886906 0.74561495 0.38927785 0.2870081
0.9356612 0.7759935 0.82947 0.89501435 0.23843345 0.543306 0.73803383 0.40437692
1.1094675 1.0608152 0.96499634 0.92296714 0.8481266 0.59553605 0.54289883 0.84049284

pre_layer.8.bias f4 [32]
00000000: a0a4 003f 5861 c13e 1046 863e 0b1b 053d
00000010: 830f 293f 07d5 b73e 8b07 0e3f b5e8 143f
00000020: a9bd 563b f699 b9be 13e8 943e 7b24 15bd
00000030: 982d d8be 6100 ab3e a371 b43e 0a4b 6d3c
00000040: 6f82 a0bd 78f6 78bc bc4c a23e 3941 e3be
00000050: 2bf9 b73d 63cd ccbb 0873 67bd f506 d03d
00000060: 203e 04bf 6d12 83be 2a09 6abe d233 15bf
00000070: 924a e43e b3fd 22be 9efc a13e 2427 aabe
0.502512 0.3776958 0.26225328 0.032496493 0.66039294 0.35904714 0.5548026 0.5816758
0.0032766855 -0.36250275 0.2908331 -0.036411744 -0.42222285 0.33398727 0.35242948 0.014483223
-0.07837378 -0.0151954815 0.3169917 -0.44385698 0.08983072 -0.00625007 -0.056506187 0.10157577
-0.51657295 -0.25599995 -0.22855058 -0.58282197 0.44588143 -0.15917091 0.31638044 -0.33232987

pre_layer.8.running_mean f4 [32]
00000000: 28d3 2f40 5121 f7c0 1419 9341 14c2 d140
00000010: b16e 9f40 e65e aa41 d8a5 b941 c890 d6c0
00000020: 1895 613f efe5 e8c0 1d54 c93c 7cd5 a6c0
00000030: 52a2 26c0 49c7 9740 3eb2 f63f 0129 1bc1
00000040: 4d33 5fc0 1f75 45c0 a286 67c1 7645 f8c0
00000050: 0686 6f3f 7ab5 0fc0 217f c340 db27 fac0
00000060: b3ea 09c0 7dec d3c0 72c0 f5c0 7d43 42c1
00000070: ca2d 36c0 8ffd e2c0 56ec 6dc1 b1f7 ddc0
2.747263 -7.722817 18.387245 6.554941 4.982262 21.296337 23.205978 -6.7051735
0.88118124 -7.278068 0.024576241 -5.21356 -2.6036572 4.743077 1.9273145 -9.697511
-3.4875062 -3.0852735 -14.470369 -7.758479 0.9356388 -2.2454515 6.1092687 -7.817365
-2.15495 -6.622618 -7.679742 -12.141477 -2.8465447 -7.093452 -14.870199 -6.936486

pre_layer.8.running_var f4 [32]
00000000: 6788 0543 d143 b442 92e4 b742 d335 f942
00000010: 58d6 2c43 8188 ca42 bfee df42 a8e2 0e43
00000020: e108 dd42 6ab5 e742 61c6 d642 02b5 0043
00000030: f8fa 8742 655e 8b42 659d bc42 9a40 df42
00000040: 9d99 7742 7a1a 7f42 9db8 8242 37b4 3c42
00000050: 31d6 1e43 cf71 1b43 6e28 ab42 465a c442
00000060: 5b17 ac42 898b 0543 a8ba 9e42 72cf 8e42
00000070: be67 fa42 7602 4242 53e3 5843 d0de ce42
133.53282 90.132454 91.94643 124.605125 172.83728 101.26661 111.9663 142.88538
110.51734 115.854324 107.38746 128.70706 67.99017 69.684364 94.30741 111.626175
61.900013 63.775856 65.36057 47.17599 158.83669 155.44456 85.578964 98.176315
86.045616 133.54506 79.36456 71.40517 125.20262 48.502403 216.88799 103.43518

conv4_1.weight f4 [1, 32, 1, 1]
00000000: d3f9 cdbf b32a eebf c7a2 e6bf d178 d3be
00000010: 860a eabf ee3b ebbf b9ea d4bf f2be e8bf
00000020: 7cc4 573f c9d3 a93f e7c0 ae3f 902b 0140
00000030: 2741 0940 81ec dfbf 41a6 a0bf d921 523e
00000040: fc18 0840 c975 ee3f e76d c5bf 0d34 c03f
00000050: b3cf 7c3e ad80 b8bf 31e7 edbf a307 86be
00000060: bcd7 1e40 83e6 dc3f 4f64 f33f b3a5 2340
00000070: d76a dfbf 4880 ed3f 359b db3f ca31 d93f
-1.6091865 -1.8606781 -1.8018426 -0.41303113 -1.8284461 -1.8377664 -1.6634132 -1.8183272
0.84284186 1.3267757 1.3652619 2.0182838 2.1446016 -1.749405 -1.2550737 0.20520724
2.126525 1.8629695 -1.5424165 1.5015885 0.24688606 -1.4414269 -1.8586179 -0.261777
2.4819174 1.7257847 1.9014987 2.5569885 -1.745448 1.8554773 1.715674 1.696832

conv4_2.weight f4 [14, 32, 1, 1]
00000000: baba 16bb db6a 903c 1a00 c1b9 b23b e8bd
00000010: 8766 ba3b 6e15 a3bc 568f 2d3c db20 65bd
00000020: 8950 27be f063 f73d 1874 0b3e 7e64 26bc
00000030: 0e02 59bc e06d 0d3d 8eef f1bc 1c76 973e
00000040: 9331 07bb 5131 abbb 6406 36bb 9de5 ca3a
00000050: 67c6 26bf c1c1 203e 34c0 17bd 9b28 dd3b
00000060: 1f1a 86bb 5d03 bbbc 19b9 973b 6bfb 48bd
00000070: f188 003d 8749 73bd 7cb5 fb3d 6e3a ca3c
00000080: c43c e4bb 7910 5e3b e2fa 9b3c cd80 383f
00000090: a54f d6bc 5bd7 91bc b523 1d3d 126c bcbd
000000a0: 83a6 89be 68cb 06bf 3a53 5d3e 8f28 ec3c
000000b0: 9ec3 153c aa28 713b 1398 f0bd 5b9f d3be
000000c0: 8f2f 273c aeed aebc 7892 a7bc b8e6 853a
000000d0: f386 cfbd 447f 3d3e 354c ecbd f9c6 17bf
000000e0: 4ea0 913c 6459 a53b 191c 1e3c 91ed 94bd
000000f0: 564c df3c 53b2 6dbd 5058 903c 8fb8 b43e
00000100: 052e 013c 27b5 6ebc 3db9 a1bc 376c 2bbe
00000110: 3bfc 9f3c c2e8 f43c 7ef5 abbc efd3 2d3d
00000120: 7be7 cdbe 506d ad3d 382c 9b3e a3dd 01bd
00000130: c9d3 f7b8 c8f2 963b b0a1 023e e429 033f
00000140: 61d5 edba 4a12 02ba 1044 353c d48e 273c
00000150: 27bd babe fd14 613e 4539 bcbc f1ad 92bc
00000160: 512e 83bb 7a14 31bb 9add d83b b7fc 103d
00000170: 124a 173c 636f f13c 9f71 c03d 687e 6bbc
00000180: 6ff0 043c 27ba 1ebd af54 b0bb 3e7f 263f
00000190: 4729 ccbb c1ed 543d 9155 55bb 71e2 fd3c
000001a0: 1be1 13bf 7ff5 13bf 307a df3e 394a 0ebb
000001b0: 1058 b93c 247e 00bd 9cd8 b73d 7f97 09be
000001c0: ce97 e83b bfc0 52bc 42ef f73a 83a5 4a3c
000001d0: f66b 893e df4b 893e 479c c7bd c810 1ebf
000001e0: ac0a 3c3c 40c1 0c3d 4e4e 5c3c 12c8 093d
000001f0: 0afc 24bb 34e7 623d ec75 9ebc e181 953e
00000200: d2f9 2439 b6e7 2c3c 95bc a4bb a23f 01be
00000210: 1aaf 1c3c f303 e4bb ed5d 803b 3d30 0ebd
00000220: dab3 5dbe 50dc e43d a59c 303e 290d 85bc
00000230: f5b7 3abc 5423 f23c 0f89 6e3b af46 ae3e
00000240: f4f1 1dbb 180b 8abb d1ea 533a 1409 273b
00000250: fb0a 18bf bb44 2c3e 8c0e 0bbd ea35 d4b9
00000260: c77d 8ebb b6b9 9bbc 8f10 c23b 95fe 01bd
00000270: 2b60 d73c f754 28bd 41d2 ee3d 1d72 883c
00000280: a07c 80bb 09a0 22bc 04a4 2f3c 4a44 333f
00000290: 3620 b5bc 1eab 703b 02a4 d03c 13ba 53bd
000002a0: f93e bcbe ec91 0bbf 7696 923e f430 a03c
000002b0: 1230 673c c6cb 04bc ebb3 65bd 6350 a6be
000002c0: 4b2b 173c 1606 96bc 6f3f 5bbc 14fe c43b
000002d0: 5515 6a3c 8ac2 553e ca04 e2bd d499 1abf
000002e0: 54b0 9a3c 82c8 693c 709f 2e3c c761 2dbd
000002f0: 54d8 9e3c ef77 babc c98b eb3b 596d ac3e
00000300: 18e7 05bc d390 a7ba bce5 02bc daab febd
00000310: e9f2 fb3b 8046 283c 9ebc 89bc 9f74 7b3c
00000320: c7ac bcbe f1c8 a63d 221b 8f3e 12bf 01bd
00000330: a1b0 2fbb 55a1 283c 78d3 943d 333f e93e
00000340: 9524 15bb fd4b 5e3b a80e 9e3b 121a 02bb
00000350: c888 e6be cec9 4f3e 2bd0 98bc 06e9 9f3c
00000360: c82d 8aba a63f 97bc b30f 103c 926a 86ba
00000370: d818 4b3c 03d9 3e3c 7b20 063e 09b9 53bc
00000380: 2053 85bb 703a d5bb 0919 633b cd84 343f
00000390: c1b9 92bc 0528 e93b bfea bc3c b50c 54bd
000003a0: f64e 98be 921e 0fbf a1fc 823e 13df 6e3c
000003b0: 6c39 873c 8ffe 3f3b 9003 4cbd bd3a acbe
000003c0: 9442 8abb e06f 48bc 567d e0bb 2985 4f3c
000003d0: 98bf cd3c 6759 613e 8b67 ebbd 05f5 1abf
000003e0: c3b5 9d3c 5298 babb e329 893c b10c 5ebd
000003f0: 98d8 833c 3619 8ebc 6b6b da3b 8383 ae3e
-0.0022999481 0.017629078 -0.00036811904 -0.11339511 0.0056884917 -0.01990768 0.010593256 -0.055939537
-0.16339315 0.120796084 0.13618505 -0.010155795 -0.013245119 0.034528613 -0.029533174 0.29582298
-0.0020628914 -0.005224385 -0.0027774805 0.0015479807 -0.6514649 0.15698911 -0.037048534 0.0067492253
-0.0040924693 -0.022828752 0.0046302197 -0.049067896 0.031380598 -0.059396293 0.12290475 0.024686065
-0.0069652516 0.003388433 0.019040529 0.72071534 -0.026161024 -0.017802885 0.03836413 -0.092003
-0.2688485 -0.52654123 0.2161378 0.028827934 0.009140877 0.003679792 -0.11747756 -0.41332516
0.01020421 -0.021353569 -0.020455584 0.0010215854 -0.101331614 0.18505579 -0.11537973 -0.59287983
0.017776635 0.0050460566 0.009650254 -0.07271875 0.02725808 -0.05803139 0.017620236 0.35297057
0.007884507 -0.014569557 -0.019741649 -0.167405 0.019529453 0.029896144 -0.020991083 0.042438444
-0.40215668 0.08468115 0.30307174 -0.03170551 -0.00011817326 0.0046065785 0.12756991 0.51235795
-0.0018145257 -0.0004961832 0.011063591 0.010226924 -0.36472437 0.21980663 -0.022976527 -0.017905207
-0.004003324 -0.0027020262 0.006618214 0.035397258 0.009233968 0.029472059 0.093966715 -0.014373399
0.008113964 -0.038751747 -0.005381189 0.65037906 -0.0062305066 0.051984552 -0.0032552222 0.030991765
-0.5776536 -0.5779647 0.4364791 -0.002171172 0.022625 -0.031370297 0.08976862 -0.13436697
0.0070981747 -0.012863337 0.0018915909 0.012368563 0.2684018 0.26815698 -0.097466044 -0.61744356
0.011477154 0.034363985 0.013446404 0.033638068 -0.002517464 0.055396274 -0.019343339 0.29200652
0.00015733324 0.010553291 -0.0050273635 -0.1262193 0.009563232 -0.0069584786 0.003917447 -0.034713972
-0.21650639 0.11174834 0.17247255 -0.016241627 -0.011396398 0.029557861 0.0036397611 0.34038302
-0.0024100514 -0.0042127483 0.00080840016 0.0025487589 -0.59391755 0.16823094 -0.03394942 -0.0004047596
-0.00434849 -0.019009452 0.005922384 -0.03173693 0.026290974 -0.041096654 0.116611965 0.016655976
-0.0039211065 -0.009925851 0.010720257 0.70026076 -0.022110086 0.0036723088 0.02546883 -0.051691126
-0.36766794 -0.54519534 0.28630418 0.019554593 0.014110582 -0.008105224 -0.056079786 -0.32483205
0.00922663 -0.018313449 -0.013381823 0.006011734 0.0142873125 0.20874992 -0.1103607 -0.60390973
0.018882908 0.014268996 0.01065813 -0.042329576 0.019390263 -0.022762267 0.0071882945 0.33677176
-0.008172773 -0.001278425 -0.007989343 -0.12435122 0.0076888693 0.010270715 -0.016813572 0.015347629
-0.3685057 0.08143795 0.27950388 -0.03167636 -0.002680816 0.010292371 0.07266897 0.4555603
-0.00227574 0.0033919804 0.0048235245 -0.0019851965 -0.4502623 0.20291826 -0.01865395 0.019520294
-0.0010542208 -0.018462967 0.0087928055 -0.0010255149 0.01239606 0.011648419 0.13098328 -0.012922534
-0.004068747 -0.0065072104 0.0034652373 0.7051514 -0.01791084 0.0071153664 0.023061154 -0.05176993
-0.29747742 -0.5590602 0.25583366 0.014579552 0.016506873 0.0029296016 -0.049808085 -0.33638564
-0.0042193625 -0.012233704 -0.0068508787 0.012666025 0.025115773 0.2200676 -0.11494359 -0.6053012
0.01925171 -0.0056944275 0.016743606 -0.054211322 0.01609449 -0.017346006 0.0066656373 0.3408471

conv4_2.bias f4 [14]
00000000: 9d47 48bb 3189 61bd 82f9 79be b7c3 81bd
00000010: 646f 233e 22a3 813e 3855 da3e f41f 823e
00000020: 8c52 943e 42d1 d83e f97d 343e 94c7 113f
00000030: 124d cd3e f995 653f
-0.0030560263 -0.055062477 -0.24411586 -0.06336158 0.15960461 0.25319773 0.42643142 0.25415003
0.28969228 0.4234715 0.1762618 0.5694516 0.40097862 0.89681965
