train_01/rnet.pt (torch_old, 411479 bytes, 23 tensors)

pre_layer.0.weight f4 [28, 3, 3, 3]
00000000: f712 bdbe c280 643e c1c2 9a3e 1af1 ab3e
00000010: 8971 a33e dbe9 b73e 867a 2b3e 9436 d5bc
00000020: e19d 44be b2cd f7be 42f3 8b3e 3440 dc3e
00000030: b54f 993f eb58 993f 332a 093f 1bf8 fe3e
00000040: cc7e 903d cbbe dcbe 3c8f a2be a341 803e
00000050: 3e50 3c3e 931a 1a3f 84b7 003f 1ff6 513c
00000060: f078 aabd 3ccf e9be 8bde a1bf 437c 5bbe
00000070: 1ae6 c8be 51a5 0cbf 5c28 2b3f c3b8 5e3f
00000080: c6fb 163f b823 ed3e d4cf 393f fb74 de3e
00000090: f661 263e 19a7 a63e c310 053e e780 5ebe
000000a0: 222b 043e 5f6e 2cbe 57a8 5abe e3af 76bd
000000b0: f9eb c9be 0493 863c 3eea 8c3e 127f 8a3e
000000c0: d961 2abf d406 07bf 8b86 1dbf c16a 4cbf
000000d0: d754 6cbe 9497 37bf 2554 b9be 6143 46bf
000000e0: 25db 2abf 37f5 26bf bc6f 94bf 6166 0ebf
000000f0: 1fa9 44bf 8446 02bf e973 81bf 4079 e03e
00000100: ac05 d23e b2a5 9c3e 62f1 e93e a5e1 df3e
00000110: b460 4f3f ffd7 093f 9eb3 553f 7e8c 8e3e
00000120: 0ad0 413e f004 5e3e 5e52 a93d c062 8e3e
00000130: 6479 cf3e e9ce 0a3f 2b86 aabd 58de 353f
00000140: 1527 a83d fb2d 0c3f 3402 313f 26c2 393e
00000150: cf65 b73e 0779 053f 4218 d73d e5f1 10be
00000160: 8fff 8b3e 7b05 d4be 967a 56bf 7494 16bf
00000170: 754c 7fbf 56a4 3ebf c289 36bf 0eec 20bf
00000180: 74a5 12bf 5fad dcbe 1f22 3ebf abc0 be3e
00000190: 807e 833e 15e5 ca3d 8854 953e 52d8 163f
000001a0: 9f98 4c3e b449 0b3f 8293 373f 3464 c23e
000001b0: d6e6 b73b fb4b 28bf c8e0 d43d 7363 30be
000001c0: 6c78 35bf 7471 92be 4cb8 1ebf 4740 88be
000001d0: 3c8b 33bf 16cd 353f f8ba f03e 32d2 5e3f
000001e0: a4d9 723f 4cad 353f 7c1a 293f fa6b 2b3f
000001f0: 4573 8e3f 6504 db3e 0cd8 e0be ec2a 27bf
00000200: 63f9 d0bd 376d a3be 70c8 08bf cf59 f8be
00000210: 1533 e9be af86 943e bf57 d4be 9a13 11bf
00000220: 456e 413d 9184 a5bf 0f3f 60bc 860a 343e
00000230: 4313 88bf cef3 1ebe 8f42 253e 5ad2 d5bf
00000240: f2ad d1be 0a3b 35bc 9cfd 22bf 0d8b 7a3d
00000250: 8139 543e 2f46 a53d 3d71 de3d 753c 0e3e
00000260: 1687 4cbf ee89 42bf d119 88bd 38dd 41bf
00000270: e47c 9a3e 0b74 003f 9478 bf3d 2ac0 cd3e
00000280: 7b40 363f 935a e53c 821d 363e 8a13 e53c
00000290: d0fb bebc 8eb8 693d 6c5c 093f efcc 0fbf
000002a0: a020 3d3f b0c7 33bd 930f 8dbf c905 4bbf
000002b0: bdb4 833e afdc 6b3e 2c28 f1be 39e3 833f
000002c0: d21e d0be 2805 803d 1272 bd3e c3c6 86be
000002d0: 76eb 4abf d378 d73b f1ea a93e f93a 39bf
000002e0: a00a 813f b018 d5be 6da0 253e 78a4 db3e
000002f0: 45f8 20bf 9d44 88be 5e88 6abf 2af3 4cbf
00000300: 72bc e93e 63e8 7f3c 99ec 2fbe 4744 0a3f
00000310: 1fd1 2e3f 2e24 333f 02c2 83be cfc2 80bf
00000320: acec 36bf c4f6 013f 2f5b 8b3c 203c 86be
00000330: eddc b83e 45cd 113f c18c 123f f893 90be
00000340: 7cee fdbe 4ed5 a9be 7420 f13e 9468 a13d
00000350: caee 79be 0741 2f3e 42a5 e73e 7fb6 993e
00000360: 0f67 793e 2003 2d3f f281 7c3f 9332 30bf
00000370: cbe5 45bf 879c 97be d9a0 d83e 8ed0 c03d
00000380: 40b5 a2bd e23d 9bbd 6819 c23e 0f9f 043f
00000390: d2ad 40bf 4a04 b2bf e467 4ebf 80e5 423f
000003a0: 5108 df3d afed a83d 0176 0abe f8c9 dd3e
000003b0: 5606 0d3f 6ea9 e9be d539 5fbf 1565 06bf
000003c0: b09a 6d3f 9cac ad3e 74f3 9f3e cde1 05bf
000003d0: 2ada 03bf 9766 683f 6162 5b3c 022d 31bf
000003e0: 44a9 093f a4f4 b83d ff26 e1be 1adf 093f
000003f0: f070 d9be 2976 f9be fb02 773f 6825 85bb
-0.36928532 0.22314742 0.3022671 0.33582383 0.31922558 0.35920605 0.16745958 -0.026027001
-0.19200851 -0.4839912 0.27334028 0.43017733 1.197745 1.1980261 0.53580016 0.49798664
0.070554346 -0.43114313 -0.31749904 0.25050077 0.18389985 0.601968 0.5028002 0.0128150275
-0.08323848 -0.4566592 -1.264604 -0.21434121 -0.39238054 -0.5493975 0.6685846 0.87000674
0.58977926 0.46316314 0.72582746 0.43448624 0.16248307 0.3254936 0.12994675 -0.2172886
0.12907079 -0.16838978 -0.21353279 -0.060226332 -0.39437845 0.016427524 0.27522463 0.27050072
-0.66555554 -0.52744794 -0.6153342 -0.79850394 -0.23079239 -0.71715665 -0.3619701 -0.7744656
-0.6674064 -0.6521792 -1.1596599 -0.5562497 -0.7682056 -0.5088885 -1.0113498 0.43842506
0.41019952 0.30595165 0.45691973 0.4372684 0.8100693 0.5384521 0.834772 0.27841562
0.18927017 0.21681571 0.082676634 0.27809715 0.405223 0.5422197 -0.08326372 0.71042395
0.08210579 0.5475766 0.69143987 0.18140468 0.3581986 0.521378 0.10502674 -0.14154775
0.27343413 -0.4141043 -0.837808 -0.5882027 -0.9972604 -0.74469507 -0.7130395 -0.6286019
-0.5728371 -0.43101022 -0.74270815 0.3725637 0.2568245 0.09906975 0.29166055 0.5892383
0.19980095 0.5440934 0.71709454 0.37967074 0.0056122346 -0.65740937 0.10394436 -0.17225437
-0.70886874 -0.28602183 -0.61999965 -0.2661154 -0.7013433 0.7101606 0.47017646 0.8703948
0.94863343 0.70967555 0.66056037 0.66961634 1.1128927 0.4277679 -0.4391483 -0.6529987
-0.10203817 -0.31919262 -0.53430843 -0.4850602 -0.45546785 0.29009005 -0.41473195 -0.56670535
0.0472243 -1.2931081 -0.013686909 0.1758214 -1.0630878 -0.15522692 0.16138671 -1.6704819
-0.40953022 -0.011061439 -0.6366823 0.061167765 0.20725061 0.08070027 0.10861442 0.1389025
-0.79893625 -0.75991714 -0.06645549 -0.7572818 0.3017341 0.5017707 0.0934917 0.40185672
0.7119214 0.02799729 0.17784694 0.027963419 -0.023313433 0.05706077 0.5365665 -0.5617208
0.73877907 -0.04389161 -1.1020378 -0.793057 0.2572383 0.23033403 -0.4710096 1.0303718
-0.40648514 0.062509835 0.3700109 -0.26323518 -0.79265535 0.0065756827 0.3318706 -0.7235561
1.0081367 -0.41620398 0.16174479 0.42898917 -0.6287883 -0.26614848 -0.9161433 -0.8005854
0.45651585 0.01561937 -0.17180099 0.5401043 0.68287843 0.6997708 -0.25733954 -1.0059451
-0.7145488 0.5076716 0.017011253 -0.26217747 0.36106053 0.5695384 0.57246023 -0.2823789
-0.49596012 -0.3317055 0.47095072 0.07881275 -0.24407497 0.1711465 0.4524327 0.30022046
0.2435572 0.67582893 0.9863578 -0.6882717 -0.7730376 -0.29611608 0.42310217 0.09414779
-0.07944727 -0.075801626 0.37910008 0.51805204 -0.7526523 -1.3907559 -0.80627275 0.7613144
0.10890258 0.082484595 -0.13521577 0.43318152 0.5508779 -0.45637077 -0.8719762 -0.5249799
0.9281416 0.33920753 0.31240427 -0.5229767 -0.51504767 0.9078154 0.013390155 -0.692093
0.53773904 0.090310365 -0.43975064 0.5385605 -0.42468977 -0.48722962 0.9648892 -0.004063297

pre_layer.0.bias f4 [28]
00000000: 0f35 1cbf 5208 043d 7771 023f bdd7 5e3d
00000010: 2b73 463c e315 2d3e b473 d63d 515c c4be
00000020: b7a1 68be 196a 8ebe 2a08 f13c 8965 8d3e
00000030: 8147 5fbe 5d28 b73c a61b 4ebe 18df 2dbe
00000040: cfaa 2bbf 439c 1bbe 526b a0bc 0997 efbd
00000050: 03d9 683d 5ff5 af3e 4326 a3bd 8fed 88be
00000060: 2c2a dabe e8e4 083e c1ed 91be 3440 353e
-0.6101846 0.032234497 0.50954384 0.054404963 0.012112419 0.1690288 0.10471287 -0.38351682
-0.2271794 -0.2781532 0.029422838 0.27616528 -0.2180462 0.022358114 -0.20127735 -0.16979635
-0.6705751 -0.15196328 -0.019582424 -0.116987295 0.056847584 0.3436689 -0.07966282 -0.26743743
-0.426103 0.13368571 -0.28501704 0.17700273

pre_layer.1.weight f4 [28]
00000000: 3491 0c3f c206 673e 4949 ff3e b6bc 983e
00000010: 7158 9b3e c582 f03e 236a 833e 2808 f03e
00000020: f174 1c3f 5210 043f 5ddc e33e 5d81 fb3e
00000030: c725 263f 433d ff3e 54c8 083f ca84 0f3f
00000040: fadc a33e 4afa 6d3e 8616 0c3f 3c81 073f
00000050: bbce fc3e 47e6 0c3f 8706 1d3f 524e d23e
00000060: 9b27 cd3e 8672 fd3e 59f1 df3e 484c 1e3f
0.5490906 0.22561172 0.498606 0.29831475 0.30340913 0.4697477 0.25666913 0.46881223
0.6111594 0.515874 0.4450406 0.49122134 0.64901394 0.49851426 0.53430676 0.56061995
0.3200453 0.23240009 0.5472187 0.5293157 0.49376473 0.55038875 0.61338085 0.4107538
0.4006928 0.49501437 0.4373882 0.61835146

pre_layer.1.bias f4 [28]
00000000: ab8b d4be bfce 963c a45b 1c3e e73b 92be
00000010: 56ed 4d3e ef62 bfbe c9db 3a3b cbc2 933e
00000020: 6115 64be 1b43 3e3e e194 aebd f5ba abbe
00000030: e82e cdbe 656c ec3c f743 3d3c bcb6 043d
00000040: d159 4bbe 6008 dd3d 875b 8fbb 67fb 253d
00000050: 44bb e2be e29a 16bf 131e adbe a76e 3fbb
00000060: 1b2f 60be 64b1 f1be 1ff2 62be d522 d43d
-0.41512808 0.018409131 0.15269333 -0.28561327 0.20110068 -0.37380168 0.002851235 0.28859553
-0.2227378 0.18580286 -0.0852449 -0.33541074 -0.4007485 0.02886028 0.011551849 0.03240083
-0.19858481 0.10792613 -0.0043749246 0.04052296 -0.44283497 -0.5883008 -0.33812007 -0.002921024
-0.2189297 -0.4720565 -0.22162674 0.10358206

pre_layer.1.running_mean f4 [28]
00000000: eb99 903f b11f 113e 869b c73d 1b16 1fbe
00000010: 6a4f c4bd 29b0 0ac0 87cb e6bd 9c23 97be
00000020: 7c23 a5be e091 b8be bfcc 3dbe 240f 843e
00000030: 24c4 84be 3466 913d 9f1f 92be dc4d 86be
00000040: e8ee a23f c978 babd 5a33 673e 850f d03c
00000050: bfe9 ca3d b957 a43e 95e1 b8bf 0c5b 22bf
00000060: 3998 f0be 7a25 58c0 a1f7 39bf 9c98 9f3d
1.1296972 0.14172246 0.097464606 -0.15535776 -0.095854595 -2.167002 -0.112692885 -0.29519355
-0.32253635 -0.36048794 -0.18535136 0.257928 -0.25930893 0.07099572 -0.2853975 -0.26231277
1.2729158 -0.09105069 0.22578183 0.025398025 0.09907865 0.32098177 -1.4443842 -0.63420177
-0.46991137 -3.3772874 -0.72643477 0.0779278

pre_layer.1.running_var f4 [28]
00000000: e52f a93f e4fa 803e bd37 4b3f ffe0 3f3e
00000010: c21f 263e dbcc 2640 dbfa 543e 4df9 523f
00000020: 96a0 ae3e a3f9 0e3f 95a1 273f 5a91 1d3e
00000030: ba4a 443f 1e76 053f 2a5f 0d3f 8cf9 663f
00000040: 2473 e43f 9721 813e f544 403f 2a18 b63e
00000050: 1d4a 023f ec71 703e a388 953f 5507 083f
00000060: fb43 9a3e 3aee 9b40 e528 7a3e 53bd 643f
1.3217741 0.25191414 0.79381925 0.18738173 0.16223052 2.6062534 0.20798819 0.8241165
0.34106892 0.55849665 0.6548093 0.15387478 0.76676524 0.5213336 0.55223334 0.9022453
1.7847638 0.2522094 0.7510522 0.3556531 0.5089434 0.23480958 1.1682323 0.5313619
0.3012999 4.8728304 0.24429663 0.89351386

pre_layer.4.weight f4 [48, 28, 3, 3]
00000000: 994e 84be d1b5 c0be be5f 85bd 931a 67be
00000010: b179 b5be 6f0b 51be 435c 053d 9641 963d
00000020: a305 f63c 8e3b f13e 5d08 f03e 645c 8e3e
00000030: 7cab 333e 5ac4 483e e78f c2bd d564 09be
00000040: 3635 f8bc 84b7 90be 9548 b23d 8975 adbd
00000050: 78aa 0ebe 2eca 913d fef6 40be c18a 52bd
00000060: 20d0 943e 64d4 083e f773 183e a7fe 493e
00000070: 4738 2c3e d585 393e 6188 123e 6b11 b63e
00000080: 139c e63e 1203 8b3e 7e36 bb3e 5e8b f63e
00000090: 5792 5b3e 7095 8f3e 1279 9ebd a83a aabd
000000a0: a2e3 77be be11 38be b345 873d 12e2 17be
000000b0: 4350 c9bd 9f1f b83e 1e72 cb3e 54f6 7ebe
000000c0: 7037 8ebe 3804 4bbe 6cf7 6bbe b4b7 0ebe
000000d0: d55c 55be 526d 68bc d251 803c 440e c7be
000000e0: ece5 afbe ca8b 4b3e a5be 5d3d 1169 8d3d
000000f0: 78cd b53d 8133 653e d2b2 2c3f 6d32 ab3e
00000100: 4f08 293f 6099 7f3f 8fa5 10c0 b298 87bf
00000110: 8bf0 3abf c39f 81bf 0230 18bf b8a4 cabe
00000120: 73bd 8bbf 635a abbe aca8 1bbe de81 cabf
00000130: 542f bebe c0d3 d7be 78f6 21bf a2ad cd3e
00000140: faa4 353f 024f b9bf 306f 33be b3f6 2a3d
00000150: e205 9bbf 892c 683e 9b7e 15bd 894c b4be
00000160: a07b 383e 3a05 a83e 9e7a c83e 76c8 51bf
00000170: fe55 243f 9c2c d13e 9f46 033f 546f ab3e
00000180: b713 243f 8bbe 863e 6111 03be 6c1a f23e
00000190: 85ce 943e 80c8 cabd 8c66 9d3e 32e2 15be
000001a0: f38f 6cbe b7bb ab3e 5de6 24bd e8de 9abe
000001b0: b784 23be 9a13 063e 2acd 01bf 9850 673e
000001c0: 925d 97bd e893 6dbf 9f51 b23e 8a6b aabe
000001d0: 9a12 033d 6b56 9bbf 1ea1 1cbf 48d6 633e
000001e0: 521d 93bf 1903 793e 79ed b6bd 9327 0abe
000001f0: ada5 d73e adda 7f3e 9d90 b7be 5134 d13e
00000200: b300 d23e 8242 57be 3e5f 053f d6b8 b33e
00000210: e2a5 6b3d 687c dc3e fc1d 1c3f 0889 73be
00000220: 7035 fb3d c40b 12bc c748 20bf c001 93be
00000230: 6dec adbe 8660 053e efd1 e2bc dbdc 183d
00000240: eaea 69be cc6e afbe cbdf 10be d144 5ebb
00000250: 0d80 3e3e ccb4 9b3d 3641 4a3e 708d 803e
00000260: b776 823b 64dc 823e d14e 86bd 477b 1fbe
00000270: b11c a33d ac1b edbe e711 73be f780 1c3e
00000280: f07d 543e 0223 293f 1d9e 113e f98a 9ebe
00000290: cfa7 13bf 7522 45be d086 45bf beed dabe
000002a0: 2901 1e3e 7a6e 89bf e65f 953b ed98 d53e
000002b0: a4c3 063f 7fb1 0c3e cac3 73bf cb37 363e
000002c0: 6ac0 9cbe 98d8 c2be 3062 293e 994e 0b3f
000002d0: c6ab d539 5443 4b3f 1b63 8dbd f99a 86bf
000002e0: 1029 813e 554f fcbd 254d 39bf be7a 593e
000002f0: 0394 6f3e d0b3 75bf 4ad2 80bf edf8 41be
00000300: 9dc6 30be 1d97 733d 9f74 6fbd 768f 9b3e
00000310: 6077 113d ef6b 733e 27d2 bd3d ab6c c03e
00000320: 04e4 2e3f fc7b 3fbe 5f57 2e3e 4e34 273e
00000330: 7f19 1cbe bdb6 1c3c 017b 9f3e 8b18 a5bf
00000340: 9a2d 6bbf 23b2 4abe 611e 1cbf f084 aabd
00000350: 1fc4 2abf c43d 3e3e 6789 923d 6dce 243e
00000360: cb6e e0be 04df 9ebe 21fe 98bb c756 e0be
00000370: d294 1d3e b16f 38be d5f2 433c c41c 753e
00000380: 85b1 183e fefd 83bd cc02 66be 276c d3be
00000390: 05a9 7dbd 7a80 93be cbe2 e5be 632c 10bd
000003a0: a7a5 acbe 6cb3 0bbf 645c d83e cdf9 59be
000003b0: a99d 493e 0ecb 3abe 3431 03be 17a6 d63d
000003c0: 8751 d63d f10e af3e 77dc 673c dc11 2dbe
000003d0: 1955 233e 6495 96be b643 5dbf 927d 333d
000003e0: f5af 99be 0b4a 62bf 0def 3bbe 4d5b fe3d
000003f0: 2537 12bf e3a8 29bf 8ee4 0abf 2119 6fbf
-0.25841215 -0.37638715 -0.06512402 -0.22568731 -0.35444406 -0.20414518 0.03255869 0.07336728
0.030031985 0.4711575 0.4688138 0.27804863 0.17545885 0.19606152 -0.095001034 -0.1341737
-0.03029881 -0.2826501 0.0870525 -0.08469684 -0.13932216 0.07118641 -0.1884422 -0.051401857
0.29065037 0.1336227 0.14887987 0.19726048 0.16818343 0.18117459 0.14309837 0.35560164
0.4504095 0.2715078 0.36565012 0.48153204 0.21442543 0.280437 -0.07737936 -0.08311969
-0.24207929 -0.17975518 0.06605091 -0.14832333 -0.09829762 0.35961625 0.39735502 -0.24898654
-0.2777667 -0.19825828 -0.23043603 -0.13937265 -0.20836194 -0.01418622 0.015664015 -0.3887807
-0.34355104 0.19877544 0.05413689 0.069048055 0.08877081 0.22382928 0.6746036 0.3343691
0.660283 0.99843407 -2.260105 -1.0593474 -0.7302329 -1.012688 -0.59448254 -0.39578795
-1.091719 -0.33467397 -0.15201062 -1.5820882 -0.37145483 -0.4215374 -0.63266706 0.40171534
0.7095486 -1.4477236 -0.17522883 0.041739177 -1.211117 0.22673239 -0.036497694 -0.35214642
0.18015909 0.32816488 0.3915605 -0.81946504 0.64193714 0.40854347 0.51279634 0.33483374
0.6409258 0.26317248 -0.12799598 0.47285783 0.29063812 -0.099015236 0.307423 -0.14637068
-0.23101787 0.33541653 -0.040258754 -0.3024819 -0.15968595 0.13093415 -0.5070368 0.22589338
-0.07390894 -0.9280381 0.34827897 -0.3328517 0.03200016 -1.2135748 -0.61183345 0.2224971
-1.1493323 0.24317588 -0.08932013 -0.13491659 0.42118588 0.24985762 -0.3585252 0.40860227
0.41016158 -0.21021464 0.52098453 0.35101956 0.057531245 0.43063664 0.6098325 -0.23782742
0.12266052 -0.008913938 -0.6261105 -0.28712273 -0.3396944 0.13025102 -0.027687995 0.03732
-0.22843519 -0.3426422 -0.1414787 -0.003391553 0.18603535 0.07602844 0.19751438 0.25107908
0.003981437 0.2555877 -0.06558002 -0.1557437 0.07964457 -0.46310174 -0.23737298 0.15283571
0.20751166 0.6606904 0.14220472 -0.30965403 -0.5767793 -0.19251426 -0.7715883 -0.42759508
0.1543013 -1.073684 0.004558551 0.41718236 0.52642274 0.13739584 -0.95220625 0.17794721
-0.3061555 -0.38055873 0.16541362 0.54416806 0.00040754507 0.7939961 -0.069036685 -1.0516044
0.2522664 -0.12319819 -0.7238334 0.21238229 0.23396306 -0.959775 -1.0064175 -0.18942614
-0.17263265 0.059470285 -0.058460828 0.3038289 0.035514235 0.23771642 0.09268599 0.37582907
0.68316674 -0.1869964 0.17025517 0.16328546 -0.15244101 0.009565053 0.31148532 -1.2898115
-0.9186646 -0.19794516 -0.60983855 -0.08326137 -0.6670551 0.18578249 0.07155114 0.1609437
-0.43834528 -0.31029522 -0.0046689664 -0.43816206 0.15388802 -0.18011357 0.011959751 0.23936754
0.14911468 -0.064449295 -0.22462004 -0.4129345 -0.061928768 -0.28808957 -0.44899592 -0.03519858
-0.33720133 -0.5457065 0.42257988 -0.21286698 0.19689049 -0.18241522 -0.12811738 0.10480898
0.10464769 0.34191087 0.014151684 -0.16901344 0.15950431 -0.2941085 -0.86431444 0.043820925
-0.30017057 -0.8839423 -0.1835291 0.12419758 -0.57115394 -0.66273326 -0.54254997 -0.9339772

pre_layer.4.bias f4 [48]
00000000: b4a9 a13d 1697 c93b 6772 963d 143a e0bd
00000010: 9f5d 8abe 66fe 97bd 0214 6fbd 803d 58be
00000020: 1396 983d bb14 013e 00c5 a7be a736 523d
00000030: 943e 11bd c0ee 553e 1089 3a3e 6219 4dbd
00000040: 0449 eebd 3141 0e3e 355b 9ebd d424 243d
00000050: 2e7d 60be f4d3 19be 0f26 f7be c4cf 77bb
00000060: 9780 5c3d 8e5f 58bd 9b78 d0be 77ce 08be
00000070: 0d11 fc3c 2ecd af3d d48a b0bd d567 4e3d
00000080: 8602 fdbd db7c 02bf 3d66 df3d 6f99 e43d
00000090: 9aa8 d93c b603 9bbe a2dd 32bd 6378 8abd
000000a0: c053 15bd c6df f9be 5827 b4bd 30ac a63d
000000b0: c19e a23c 33d2 e6bd 536d 8e3b 5aef 0b3d
0.078936964 0.006152044 0.07346039 -0.109485775 -0.27024552 -0.074215695 -0.05836869 -0.2111721
0.074504994 0.12605564 -0.32767487 0.05132165 -0.03546007 0.20891857 0.18216348 -0.050073035
-0.116350204 0.13892056 -0.0773224 0.040074185 -0.21922752 -0.1502226 -0.48271224 -0.0037813047
0.05383357 -0.052825503 -0.40717015 -0.1336001 0.03076985 0.08584057 -0.08620229 0.05039199
-0.12353997 -0.50971764 0.10908172 0.11162078 0.026569653 -0.3027627 -0.043668397 -0.06761243
-0.036456823 -0.48803538 -0.08796567 0.08138311 0.01985109 -0.11270561 0.0043465286 0.03416381

pre_layer.5.weight f4 [48]
00000000: 2d36 6b3f 0d9f 073f dde1 573f 6b2c 7b3f
00000010: 5b36 393f 1533 163f 278c 243f 6e9b 2f3f
00000020: 016e 4e3f 2319 7d3f 76c4 543f a272 383f
00000030: a20e 1e3f f8d3 063f 0aef 4a3f a3fb 2c3f
00000040: 4751 193f 0eed 463f 064d 3b3f ed6e 393f
00000050: 1363 1c3f d7dd 273f e61c f33e fa94 143f
00000060: 06f1 703f 5964 343f 0892 d93e 821b 3e3f
00000070: c326 553f 208a 4e3f 7639 213f 4191 593f
00000080: 9f55 0c3f 4341 de3e 0329 5b3f 32c0 353f
00000090: 5da2 373f aa41 253f ba62 133f eb3e 263f
000000a0: 5a18 4b3f 335e c23e 502e 5b3f 687e 0c3f
000000b0: aa80 4e3f 8dfa 4a3f 3ad4 073f 2012 1d3f
0.9187954 0.5297707 0.84329015 0.9811465 0.72348565 0.58671695 0.64276356 0.6859654
0.806366 0.9886648 0.83112276 0.72049916 0.6174108 0.5266719 0.79270995 0.6757147
0.59889644 0.77705467 0.73164403 0.72434884 0.61088675 0.65572876 0.47482985 0.5803982
0.9411777 0.7046562 0.42494226 0.74260724 0.8326227 0.8067951 0.62978303 0.84987265
0.5481815 0.43409166 0.85609454 0.7099639 0.7173212 0.6455332 0.5757252 0.64939755
0.7933403 0.37962493 0.8561754 0.5488038 0.80665076 0.7928856 0.5305821 0.6135578

pre_layer.5.bias f4 [48]
00000000: a9e4 77be e651 18be 8e60 bdbe b652 09bf
00000010: 1f61 f0be b58f ccbc cf7b 70be f375 693d
00000020: 5925 a0be 5481 ddbe f47d 08bf eedd a7be
00000030: f6ef 85be 47f4 5d3c 3d42 35be e145 a2be
00000040: 3d66 96be 57f4 abbe dea5 4abd 1735 ccbe
00000050: 9038 3ebe e7de cfbe 7136 aebe 1d75 5ebe
00000060: 95a9 01bf 2238 e2be 7588 ff3e ec41 9dbe
00000070: 1e14 47be ed04 2ebe 2091 c5be e63b a2be
00000080: ff6c d2bd 0e75 9cbe 3fe5 aabe 4354 75be
00000090: cd16 12be a9ad 4fbe f5a9 9abe 63ee 1abe
000000a0: 356a cbbe 09a5 f6bd cb77 e4be 2e89 49be
000000b0: af30 7ebe 9fa9 94be df3f 87be a571 41be
-0.2420832 -0.14874992 -0.36987728 -0.5364183 -0.46949098 -0.024970869 -0.23484729 0.05699725
-0.31278494 -0.43262732 -0.5331719 -0.32786506 -0.26159638 0.01354701 -0.17701049 -0.31693938
-0.29374877 -0.33584854 -0.04947459 -0.39884254 -0.18576264 -0.40599748 -0.3402591 -0.21724363
-0.50649387 -0.4418345 0.49908796 -0.30714357 -0.19441268 -0.16994067 -0.38587284 -0.31686324
-0.102746956 -0.30558056 -0.33378026 -0.23957925 -0.1426651 -0.2028109 -0.30207792 -0.1513
-0.39729467 -0.12043197 -0.44622645 -0.19681236 -0.24823259 -0.2903566 -0.26415917 -0.18891008

pre_layer.5.running_mean f4 [48]
00000000: 17ca d6c0 d146 83bf b0c2 6bc0 218e 9cc0
00000010: dbc0 5ac0 fb5d 0bc0 697e cec0 fb75 d1c0
00000020: a475 c7bf a517 12c1 b79d 8ac0 707e aec0
00000030: 8318 93c0 7517 fbbf d217 b1c0 8f89 febf
00000040: a1bc 01c0 234e 4dc0 5da6 01c0 9dc2 5cc0
00000050: 9826 91c0 1629 2fc0 66c9 8ebf bce8 86c0
00000060: 808d d1c0 014c 63c0 cb80 56c1 abaa 8cbf
00000070: 5c8e 87c0 a918 95c0 c46e 15c0 45dd 21c0
00000080: bbfd c3bf 625d b9be 376f 32c0 8fce a3c0
00000090: f8da 17c0 ad59 a0be 2b5f 4ec0 02d0 29c0
000000a0: 72c1 4dc0 d7b7 313f 18d6 adbf 3d4b a6c0
000000b0: 31af 81c0 f868 2ac0 9e7e 39c0 3510 e8bf
-6.712169 -1.0255986 -3.6837578 -4.8923497 -3.418021 -2.177611 -6.452931 -6.545652
-1.5582776 -9.130773 -4.3317523 -5.4529343 -4.596742 -1.9616534 -5.5341578 -1.988573
-2.027138 -3.207894 -2.025779 -3.4493783 -4.535961 -2.7368827 -1.1155212 -4.21591
-6.548523 -3.551514 -13.406444 -1.0989584 -4.236128 -4.6592603 -2.3348856 -2.5291302
-1.5311807 -0.36204058 -2.788038 -5.1189647 -2.3727398 -0.31318417 -3.2245586 -2.6533208
-3.214932 0.6942114 -1.3580961 -5.1966844 -4.0526357 -2.6626568 -2.898353 -1.8129946

pre_layer.5.running_var f4 [48]
00000000: 9f8e c441 9ff3 c440 b79f 5c41 2c3c 7441
00000010: 60c7 8041 d3d3 c040 f874 b141 dd4e c141
00000020: 5527 0a41 4845 0f42 8d4f 7541 f29a 7a41
00000030: 2e26 8c41 f5db ef40 cbe8 9741 313e 2d41
00000040: 5e44 1f41 cc92 0c41 b602 b740 ae53 f340
00000050: c731 cd41 5e09 2841 1bef ef40 8078 2c41
00000060: ff04 af41 1347 d940 4c5b 6642 661b 4841
00000070: f142 4841 1dcb 4941 f723 3a41 cfb6 0141
00000080: 3c13 b640 ece3 9440 a770 5e41 60ee 8341
00000090: 9f6e 3a41 3c9a 7c41 3a06 2f41 b0e3 fb40
000000a0: 40f9 1941 4e58 fa40 cad6 ab40 a416 7c41
000000b0: d0ea 4441 d90a 1341 8384 0941 c3c4 e640
24.56964 6.154739 13.788993 15.26469 16.097351 6.0258574 22.182114 24.163507
8.634603 35.817657 15.331922 15.662828 17.518642 7.4956 18.988668 10.827683
9.954191 8.785839 5.719081 7.603965 25.649305 10.502287 7.4979377 10.779419
21.87744 6.789926 57.589157 12.506689 12.516343 12.612088 11.6337805 8.107131
5.689848 4.6528225 13.902503 16.491394 11.652007 15.787655 10.93902 7.871544
9.623352 7.8232794 5.3699694 15.7555275 12.307327 9.190148 8.5948515 7.211519

pre_layer.8.weight f4 [64, 48, 2, 2]
00000000: 86bb 043f fb69 8dbd 2ef3 93be ab5a 37bf
00000010: 74af e0be d42d 13be 3c24 60be c53d 953e
00000020: ed90 a13e 60e0 88be aba0 843d 2436 aebe
00000030: 6236 fe3e ab67 92bc 31a0 80bd 1289 ff3c
00000040: 4d06 053e 5e08 bebe 927b a8be 07bc 90be
00000050: fee4 96be 22a5 dc3d b0a5 093f 7127 7cbe
00000060: d514 4fbe c3fc f53d a9ba 3a3e 425c 1ebe
00000070: d80f 53bf 151b 19bf 6b36 cdbd 9e1e ad3e
00000080: 6266 0cbe 9520 45bd 26f9 f7bd 1946 673e
00000090: e9b7 15bf dcd0 c0be 9c5b 08bf d89a 15bd
000000a0: 676a aabf f5b9 0abf a304 d8be ab0f 4d3e
000000b0: e8bb b5be 75c4 04be 09a3 923d d7ed 393b
000000c0: 03da d4be 1934 38be b43d 91be d6f9 babe
000000d0: 1e69 053e 2736 83be a5f8 4b3e 916d ccbe
000000e0: f2fd 813e 7d42 213f 1d66 7e3e 8e4c ad3e
000000f0: c6ed 5abc 9542 10bf af37 043d 981e e1be
00000100: ee65 b93d f107 debe 8266 46ba 3e2c 90be
00000110: cfee 3e3c e082 bb3e d183 6e3e 6008 d43e
00000120: 5c4a 2b3e 539d 2a3d 5e23 02be d233 3ebe
00000130: b288 f03e 0a1b 0abf 98f7 ab3e c69d ec3c
00000140: f75c 26bd 58be 81be 8352 52be a860 e6be
00000150: f019 5f3e 4873 74be b3ec a63c 60f1 3ebe
00000160: 2249 f23d be0c a53e 6f91 883a b0f7 e33e
00000170: 4b2f 3bbe 678b 0c3f 9904 89bf b49f 593d
00000180: 9200 673d 4114 bbbe 55e7 a33d 62b4 46be
00000190: d435 07be 73cf 523e 8bb2 d6be 0701 0c3d
000001a0: 7d06 78be 23d4 a3be 2dc0 edbc 2630 713d
000001b0: 1ba4 5f3e 3791 753e 3c50 d83d bf93 debc
000001c0: bf07 08bf e60a c63d 99f5 eabd 7611 fe3d
000001d0: 86b7 983e 97d9 073e cbbc 103e a309 ba3d
000001e0: 7d53 df3e 37c4 9bbd 474c 613c 511a 163e
000001f0: 7f7f 053e 28ac 5fbe ebb8 d13e 2e72 ea3e
00000200: ca20 34be 474d f33e ff8a dabd fea8 ebbd
00000210: 00b0 1cbf 5984 883d 214d 89bf 2794 03bf
00000220: b524 28be 7ba4 1dbf 84ea c23e b9cc 28be
00000230: 42d1 c1be 4742 183d 1dfb 733d 8e77 8c3e
00000240: ddb2 debe c371 713d 9b46 783d 11f9 073e
00000250: 0a44 90bd de97 bf3e fca2 89be f261 ecbd
00000260: fcd0 8dbe 796d 673e 09fb 723d 8592 1e3f
00000270: c743 f0bd 244c 3fbf 05c9 5cbc d2e5 5cbe
00000280: 522b ae3d 8bdb 6a3e 03d3 ba3e 7eb4 233f
00000290: ba7a 093e cbf6 4a3e f28a 95be 8108 6fbf
000002a0: 4861 0ebf b539 1ebe a906 a8bd 7a63 9f3e
000002b0: c764 9ebe 8cdd 843e 689a 673e a447 473f
000002c0: 24a7 2bbd abff 8fbd d56c 323f abb4 5a3e
000002d0: 39f7 95bf a03c 97be 7e97 12bf bee6 e7be
000002e0: 9ea2 08bf 7114 0cbf f11c cb3c 6504 13bf
000002f0: 0b23 d5be 39fd 1abf 5213 093e 6556 073e
00000300: 05d9 c1be 9d89 3ebf 9729 76bd 31ef 91bd
00000310: 7ec5 9bbe d6bb 9c3d 51b1 1f3e 0785 c03d
00000320: b87a 393e a2bd 2dbe dbbb cf3e f132 cdbb
00000330: d031 2cbf 7de9 b23b d810 a43e 46b6 063f
00000340: 0588 9ebb a11b c33e 0123 b2be 9a5e 85be
00000350: 180d 78bd 3662 3c3e 1bf1 773d b3dc 9abe
00000360: 4507 20be 42eb bbbe ed65 633e d511 133e
00000370: 0c02 343f 6264 6e3e 6251 493f 121d b63e
00000380: 924e 10be 7f5d 30bf 2595 963e e5b8 bf3d
00000390: a3bc 0a3e 6c02 3abf 42ea 5f3e 48fa 373f
000003a0: b18a f03d 2a1b 733e d995 c73d e2ec 123d
000003b0: 804f 1b3e 7dbe 713e 88d2 be3e 7b73 1f3f
000003c0: 31e8 0dbc 1621 9cbe daeb a0be 793f 003f
000003d0: 9cd8 ec3e 8a20 20bf 2a9d debe d125 3a3d
000003e0: 185c 94bd 79d3 5e3e edcf 72be 75e5 d33c
000003f0: fef1 9dbe fa4e e0be bcf2 c5bd 210e 47be
0.5184864 -0.0690498 -0.2889647 -0.71622723 -0.4388386 -0.14372951 -0.21888822 0.2914869
0.31555882 -0.26733685 0.064759575 -0.3402568 0.49650866 -0.017871698 -0.06280554 0.03119329
0.12990685 -0.3711576 -0.32906777 -0.28268453 -0.29471582 0.10773684 0.53768444 -0.2462442
-0.2022279 0.12011101 0.18235268 -0.15464881 -0.8244605 -0.5980695 -0.10020145 0.33812422
-0.13710931 -0.048126776 -0.12108068 0.22585334 -0.5848375 -0.37659347 -0.53264785 -0.036524624
-1.3313721 -0.5419 -0.42191038 0.20025508 -0.35494924 -0.12965567 0.07160003 0.0028370523
-0.4157258 -0.17988624 -0.28367388 -0.36518735 0.1302838 -0.25627252 0.19919069 -0.39927343
0.25389057 0.6299208 0.2484364 0.3384747 -0.013362354 -0.56351596 0.032279667 -0.43968654
0.09052645 -0.43365434 -0.00075683754 -0.28158754 0.011653616 0.36623287 0.23292471 0.4141264
0.16727585 0.041653942 -0.12708804 -0.18574455 0.4697929 -0.5394751 0.33587337 0.028883826
-0.040616002 -0.25340533 -0.20539288 -0.44995618 0.21787238 -0.23872101 0.020376539 -0.18646765
0.11830355 0.32236284 0.0010419319 0.44524908 -0.1827976 0.5490021 -1.0704528 0.05313082
0.05639703 -0.3653889 0.080031075 -0.19404748 -0.13204128 0.20586948 -0.41933092 0.034180667
-0.24221225 -0.31997785 -0.0290223 0.05888381 0.21839945 0.23981176 0.105621785 -0.02717006
-0.5313682 0.096700475 -0.11472625 0.12405674 0.29827517 0.13266598 0.14134519 0.09083869
0.43618384 -0.076057844 0.013751096 0.14658476 0.13036917 -0.21843016 0.40961394 0.45790237
-0.17590633 0.47519895 -0.10671043 -0.11506842 -0.61206055 0.06665868 -1.0726663 -0.5139794
-0.16420253 -0.615791 0.38069546 -0.16484345 -0.37854964 0.037172582 0.059565652 0.27434963
-0.43495837 0.058946382 0.06061421 0.13278605 -0.070442274 0.37420553 -0.2688216 -0.11542119
-0.27698505 0.22600354 0.059321437 0.6194232 -0.117316775 -0.74725556 -0.013475661 -0.21572044
0.085043564 0.22935311 0.36489114 0.63947284 0.13425723 0.19820707 -0.2920757 -0.9337235
-0.5561719 -0.15451701 -0.08204395 0.31130582 -0.30936262 0.25950277 0.22617495 0.7784369
-0.041907445 -0.07031187 0.69697315 0.21357982 -1.1716071 -0.2953844 -0.5726241 -0.4529323
-0.53373134 -0.5471869 0.024794074 -0.5742858 -0.41628298 -0.6054264 0.13386276 0.1321655
-0.37860885 -0.7442873 -0.060098257 -0.071257 -0.30424112 0.07653014 0.15594985 0.09400373
0.1811322 -0.1696687 0.4057301 -0.006262176 -0.6726351 0.005459963 0.320441 0.5262188
-0.004837992 0.38107017 -0.3479233 -0.26048738 -0.060559362 0.1839684 0.06053267 -0.30246505
-0.15627773 -0.36702925 0.2220685 0.14362271 0.70315623 0.2328048 0.78639805 0.35569054
-0.14092472 -0.68892664 0.29410663 0.09361438 0.13548522 -0.72659945 0.21866706 0.71866274
0.11745203 0.23740831 0.09745378 0.03587044 0.15167046 0.23607822 0.37269998 0.62285584
-0.008661316 -0.30493993 -0.3142994 0.5009685 0.4625901 -0.6254965 -0.43479282 0.04544622
-0.07244128 0.21760358 -0.2371213 0.02586625 -0.30848688 -0.43810254 -0.096654385 -0.19438984

pre_layer.8.bias f4 [64]
00000000: f991 32bd d8fd 983c eb9e b9bb 5017 913d
00000010: f7d4 333d e20d 52bd 712e 39bd 01f1 923c
00000020: e73d af3c af94 453d 60fd 9cbd 95ba a7bc
00000030: 5c8d 95bd 97ed adbc 1116 b33d 58bf 233d
00000040: 3b93 86bc 68e0 09be 7201 b9bc 9026 863d
00000050: 337a 963c 88d7 b53d 0663 e93d 8fb8 8a3b
00000060: 907f 853d 5e33 44bd 2450 983d e8e4 28bd
00000070: 730d 8b38 8d8a 59bc 0615 9d3d 6424 343d
00000080: 1646 af3b e9b8 71bd dfb3 083d 2fda c2bd
00000090: b94c aa3b cd3e 833d 72b5 833c 8fa2 653d
000000a0: 19de 98bd 86cf 3cbd 2b63 8d3d d054 8c3d
000000b0: ad5b 803d c648 89bc 6455 2fbd 0491 e6bc
000000c0: 88c0 c13d 12a1 8a3b 352f 37bd 9e77 f93c
000000d0: ca84 bf3b b01b 653d 1b89 5abc 584e 7a3c
000000e0: 1973 f0bd e589 1e3c 34d4 a2bd db87 15bd
000000f0: ccb8 9bbd 70a0 ffbc d90c 4b3d c851 6c3d
-0.04359624 0.01867573 -0.0056646965 0.07084525 0.04390427 -0.05128277 -0.045210306 0.017937185
0.021391822 0.0482375 -0.07665515 -0.020474711 -0.07302353 -0.021231456 0.08744443 0.0399774
-0.016427627 -0.1346451 -0.022583697 0.06550324 0.018368816 0.08879 0.1139584 0.004233427
0.06518471 -0.04790055 0.074371606 -0.041233927 6.6305416e-05 -0.013277662 0.076700255 0.043980017
0.005348931 -0.059014235 0.033374663 -0.095142715 0.0051971343 0.06408463 0.01607773 0.05606323
-0.07464237 -0.046096347 0.069036804 0.06852114 0.06267486 -0.016758334 -0.042806044 -0.02814532
0.094605505 0.004230627 -0.044722755 0.030452546 0.005844687 0.055934608 -0.013338353 0.015277468
-0.11740703 0.009676431 -0.07950631 -0.036506515 -0.076036066 -0.031204432 0.0495728 0.05769518

pre_layer.9.weight f4 [64]
00000000: c902 903e c807 bb3e b82b bf3e 0eb9 a83e
00000010: eb19 913e a161 103f 6761 113f 5f94 9f3e
00000020: c0de c43e ae9a a13e 504b d43e a888 103f
00000030: bd23 b73e f08a 623e 2c0c e23e 604a a23e
00000040: 1e00 c03e 1efd a43e dbe5 b83e 15ca 5b3e
00000050: e1d5 5b3e 339a ab3e 55a7 f13e 1783 3a3f
00000060: 9472 9f3e 9732 7d3e ce92 8c3e 19a2 a03e
00000070: 3685 863e 4bbb ec3e 5c54 a53e 96fa ab3e
00000080: b05a 513e f77a 293f 8c65 913e c875 f03e
00000090: 3f8f 8c3e 6a36 c63e e3e3 a43e be06 9f3e
000000a0: 3294 ea3e f4b4 c83e c4c6 a73e f834 ac3e
000000b0: 5cf3 ae3e 763b f73e b4b5 023f e40c 953e
000000c0: a8fe 8a3e 5c72 ef3e d671 b83e a9ef 6a3e
000000d0: 5d36 b63e 602b a1be 650b 1b3f 77b6 6f3e
000000e0: 908f 9b3e 7985 863e dd1d 8d3e e145 673e
000000f0: 921c d53e ec1b 113f 0135 903e a1b7 083f
0.28127125 0.36529374 0.37338042 0.32953686 0.28340086 0.5639897 0.5678925 0.31167886
0.38451195 0.31563324 0.4146371 0.5645852 0.35769454 0.22123313 0.4414991 0.3169737
0.3750009 0.32224363 0.36112866 0.21463807 0.21468307 0.33516082 0.47197977 0.7285628
0.31142104 0.2472633 0.27455753 0.3137367 0.26273507 0.46236643 0.32290924 0.3358962
0.20444751 0.66203254 0.28397787 0.4696486 0.27453038 0.3871339 0.32205114 0.3105983
0.4581619 0.39200556 0.32768834 0.33634162 0.34170043 0.48287553 0.51058507 0.29111397
0.27147412 0.46766937 0.3602435 0.22942986 0.3558835 -0.31478405 0.6056426 0.23409449
0.30382967 0.26273707 0.27561846 0.2258525 0.4162336 0.5668323 0.2816544 0.53405195

pre_layer.9.bias f4 [64]
00000000: 2a60 85be 6170 35be f9cf 80be 1d2d 3cbe
00000010: 39a0 ad3d dc15 f8be 7b01 423e 34b5 93bd
00000020: 7c3c b03c a81e 0ebe 26f1 80bc 8b66 9ebe
00000030: 22b2 63be 8f1a 6fbe a2ba a3be dac0 5cbe
00000040: d128 87be 87fa c73d 49f8 23be 98a4 65be
00000050: 0ca0 ffbd 96f5 75be 7000 95be 5701 12bf
00000060: ccc2 a6be a190 02bd d68a b3be 46a9 783d
00000070: f857 c2be 1ae2 f6be 1e22 87be 3aa8 7d3d
00000080: 5fbb fcbd 6c4e 96bf c664 07bd 8e8d 34be
00000090: 82ad 8abe 4b47 b6be 61ef 53be 6be9 3dbe
000000a0: fe5f 0bbe 7b1d d6be efb6 d8be c86e 67be
000000b0: 539d dbbe ece7 54be 213f 5dbf 7348 27be
000000c0: ff1a e7bd 144d 21bd d3ba dbbe 25d1 72be
000000d0: 0f02 b9bd 4664 ffbd 8b56 99bf 5260 c3be
000000e0: f7be b0bd b733 0bbe 57c0 7bbe 7950 82be
000000f0: 6b7d 94bd 8a6f 0cbe 4545 eabc fe9a 53be
-0.2604993 -0.1771865 -0.2515867 -0.18376584 0.08477826 -0.48454177 0.18945877 -0.07212296
0.021513216 -0.13878882 -0.015739989 -0.3093761 -0.22235921 -0.23349975 -0.31978327 -0.21557942
-0.26398328 0.09764581 -0.16012682 -0.22426069 -0.124816984 -0.24019465 -0.29101896 -0.57033294
-0.32570493 -0.03187621 -0.3506686 0.060708307 -0.3795774 -0.48219377 -0.26393217 0.06192801
-0.12340426 -1.1742682 -0.03305509 -0.17632124 -0.270855 -0.35601267 -0.20696785 -0.18546073
-0.13610837 -0.41819367 -0.42327067 -0.22600853 -0.42893466 -0.20791596 -0.8642445 -0.16336231
-0.11284446 -0.039380148 -0.42915973 -0.23712595 -0.09033596 -0.124702975 -1.1979536 -0.38159424
-0.08630174 -0.13593946 -0.2458509 -0.2545202 -0.07250484 -0.13714424 -0.028597483 -0.20664594

pre_layer.9.running_mean f4 [64]
00000000: ade9 8dc0 5418 50bf 5ee7 19c0 10a1 c440
00000010: 7526 0540 3f09 cbbf 8393 ecbd 316b 0cc0
00000020: 7816 44c0 0188 6340 ca60 94bd 84d5 0ac0
00000030: b2ce 393e 24ed 333f 8b6a 0fbf c7b8 31c0
00000040: 5892 0ac0 1d35 6bbf 7d14 56c0 e66d 32c0
00000050: 2670 bd3f 022c b2be 9e18 43bf c7b7 19c0
00000060: 3a10 bf3f 0f70 65be 8e66 e7bf edbd c7bf
00000070: 6110 6e40 5d1c 32c0 1b82 453f 94b6 81c0
00000080: 8ebc 2ec0 df03 b7c0 8559 02be 42e4 0dc0
00000090: 6701 ccc0 009b 5a3f a202 d8c0 a25e d2c0
000000a0: c20f 19c0 383d 62c0 e426 8740 a2e6 95c0
000000b0: c80e 8ac0 04da 18c0 ead3 eac0 5356 73bf
000000c0: 470f 993f 6c3a bfbf 41c5 90c0 819a 7bbf
000000d0: 15bf 68c0 72ec af3f 03a4 50c0 2be8 79c0
000000e0: 0871 db3e 143d 1cc0 7fe5 6340 69fb 95bf
000000f0: cebd fdbf 0622 3fbf 25ec 45c0 0395 7a40
-4.434775 -0.8128712 -2.4047465 6.144661 2.0804722 -1.5862197 -0.11551573 -2.1940424
-3.0638714 3.555176 -0.072450235 -2.169282 0.18145254 0.7028372 -0.56021947 -2.776903
-2.165182 -0.9187792 -3.3450005 -2.7879577 1.479985 -0.347992 -0.7620944 -2.4018419
1.4926827 -0.22406028 -1.8078172 -1.5604836 3.7197497 -2.7829812 0.7715165 -4.0535374
-2.7302585 -5.7192225 -0.12729461 -2.2170568 -6.375171 0.8539276 -6.7503214 -6.574052
-2.3915868 -3.5349865 4.2234974 -4.6844034 -4.3143044 -2.3883066 -7.3383684 -0.95053595
1.1957787 -1.4939704 -4.524079 -0.9828263 -3.6366627 1.3744032 -3.2600105 -3.9047954
0.42859674 -2.441228 3.5608823 -1.1717349 -1.9823549 -0.7466129 -3.092538 3.915345

pre_layer.9.running_var f4 [64]
00000000: bd00 9640 d6bb b140 de89 9340 1e28 0341
00000010: 10e8 0041 9b66 1941 6f0b d140 dc3f d840
00000020: c9a3 cf40 16fb ba40 ac31 f140 8ad7 a940
00000030: 07d7 5d40 ebcd c740 1ef8 b040 7538 ac40
00000040: 79ea a740 7de4 9840 5836 8840 c8a8 8d40
00000050: 4bd9 5e40 ec7e 8240 0894 bc40 ff09 3341
00000060: abe3 8240 2ec9 7940 d4e4 6040 348d ce40
00000070: 67d1 c740 a2c6 c740 cd02 8840 005c 9040
00000080: 83ff 8f40 f046 6941 7e92 9640 96f9 8740
00000090: 5d18 d240 3eb1 9e40 f4ee 1e41 174d b440
000000a0: 2302 ab40 1bc7 4b40 e80d d940 3085 f640
000000b0: c0a2 7d40 b3d3 e940 e34a 0941 cdfe 8d40
000000c0: 8505 e540 262a d840 7048 fa40 493b 9440
000000d0: 72a4 1c41 bce2 8940 0083 1c41 a9b7 6740
000000e0: b417 7740 c370 8740 db20 7e40 4fcd 6540
000000f0: 971b c140 a16e a340 4d35 ba40 52a4 4941
4.68759 5.554179 4.6105795 8.197294 8.056656 9.58755 6.5326457 6.7577953
6.4887433 5.84315 7.5373135 5.307561 3.4662492 6.2438865 5.5302877 5.3818917
5.247372 4.7778916 4.2566338 4.426853 3.4820125 4.0779934 5.89307 11.18994
4.0902915 3.902904 3.5139666 6.4547367 6.244312 6.242997 4.250342 4.5112305
4.4999404 14.579819 4.7053823 4.249217 6.565474 4.959136 9.933338 5.6344104
5.344011 3.1840274 6.7829475 7.7037582 3.9630585 7.307092 8.580783 4.4373536
7.156924 6.755145 7.8213425 4.632237 9.790148 4.3089275 9.781982 3.6205847
3.8608217 4.232515 3.9707553 3.590656 6.034618 5.1072545 5.8190064 12.602617

conv4.weight f4 [128, 576]
00000000: d05b e43d d4b5 a2be 8a31 91be e60f 77be
00000010: 3e36 a6be 022e 24be a14f 293f 2446 c73d
00000020: 2941 c93e 46ff 653e fd6a 0dbe a573 96bc
00000030: 7c1f 1c3f 28da e73e b79f 1d3e 92ec cfbe
00000040: 7c7f f13d 2c7a ad3d 7964 ca3b 0e6c c8bd
00000050: 42ff 863e 0931 2f3e 43e3 033f 9d4a 253f
00000060: 237a 943c 2687 3a3f 6e9a 253f a77f 7ebe
00000070: 5d96 a8be fbdc 8ebe 3ea4 88be 4d2d a7be
00000080: 9b81 cbbe c23a d4be 3ecc 22bf 5058 0bbd
00000090: 86f1 783e 6027 1a3e b45b 06be 2720 843d
000000a0: 88dd 143f 6f80 953d 9688 513d 4141 c0be
000000b0: 0344 7abc 0a43 933f 9e7a 9d3f cb40 3e3f
000000c0: 3686 383f ea07 6d3f 4031 093f 1815 8c3f
000000d0: af46 033f e0a0 a23e b126 adbd ac09 48be
000000e0: 7437 583d 485f 70be e4bd 83be 88b4 b33e
000000f0: bc7e c1be ce00 a2be ba17 5bbd cb2f 3b3f
00000100: 15a5 d5bd 08d1 5fbe 9184 6b3e f7b6 8dbe
00000110: 3d96 65be 9fd0 c6be b832 ddbe 21aa cdbd
00000120: f447 a83e fcd6 ce3e 4a78 8dbd f30d c3bd
00000130: 6659 b3bd a703 093c c209 27be 0dd2 2c3e
00000140: e5d9 50be 2c23 423f a297 673e 44bc b9be
00000150: de26 5c3e efbb 21be 4977 1b3d f4d7 3d3e
00000160: 1d5b 873e 91e3 2ebf 1702 743e 012d 0c3f
00000170: 6339 013f 13cb 6ebd 6bc4 ce3d 01e5 d43e
00000180: f1c0 e43d d5b2 103d 25b5 823e b270 ecbe
00000190: bf36 aa3e 3fcf b93e 3b9b 4dbd 95c7 0d3d
000001a0: f6b5 ad3e 4a36 8f3e 6fd8 383f 24de eb3e
000001b0: 805b 143f bc29 403d 64f0 db3e fa60 343e
000001c0: 295f 50bd 7b69 ae3e 4145 043f dcd6 00bf
000001d0: dbd9 9dbe d207 083e 2f3a c33e 4367 293f
000001e0: bc79 c83e 90c4 80bd 168a fc3d 9c82 bcbe
000001f0: 784b 52bf 8f63 0abf 57c3 37be 6c0c bfbd
00000200: cf19 1abe 255e 063e d9a6 09be 22c4 1cbe
00000210: dac4 43be a80a 8b3e 95ff 80be a32a 6dbe
00000220: 6d57 a63e 39a7 b9be 73e7 d3be ef25 543e
00000230: f17d 2f3e 4508 6d3e 6b28 ef3e 03e3 2bbd
00000240: a50c 863f 3982 cc3e 04c9 813f 1517 c13e
00000250: 0d57 d9be 463f 373f a31d 0b3f 68bd 47be
00000260: b969 0f3f 19f9 e3bb 4649 00bf 3db9 55be
00000270: ddc5 893e 6d35 bfbc a030 3abe 1eaa d3be
00000280: 7fd1 8cbe 857f 893c b968 bd3e 355b ac3e
00000290: e4b5 3fbd b1ed 9f3e b148 2c3f 40df c23e
000002a0: 71e6 9a3c 54bd 563d dbe0 9e3b 175f df3e
000002b0: 9076 c03e 45c9 5c3f 0729 8a3e a934 193f
000002c0: 45e3 c93e 74fb 083f 11db fa3e 23fb 493e
000002d0: aa53 06bf 1747 01be 255a 13be 5d7a 103d
000002e0: 0e0f 08bf f3d3 26bd 0b15 023e 1fef 76be
000002f0: fe88 28be ba52 39be 0325 f0bd dbdc 343e
00000300: fd64 653e 2bfa 66be b55f 44be 1c9e 09bf
00000310: b47d 1ebf e783 1dbf bbfc 0cbc 488c 843e
00000320: 7cbf 903d 425d d23e 0064 03bd 8abc f1be
00000330: 3266 283f 5438 d4be cac6 cabe 2d82 383f
00000340: edf0 5f3f 4aa3 283f 0f85 013f f309 523f
00000350: 752a 363f 6f62 ff3e c078 783e 9eb4 603f
00000360: 4b95 283f 20cd 3c3f 33bc 1e3e a76c 9b3e
00000370: de42 2b3f c049 9abe 72f0 d33e 30ad 003e
00000380: 54f7 a83b 4fe6 b53e 4e63 e03e f156 4abf
00000390: c2f8 273e 303a f13e ee90 2e3e 9a31 e23e
000003a0: fd7e 973e e994 b4bd 407a 413e 3a53 8e3e
000003b0: 068d bf3e 4d2d a4be 6c68 47be fc3c 89bb
000003c0: 67ac 753d becd 79be 7b1d 1c3e c372 463e
000003d0: 1681 bb3e 6eea 093d dd61 3abd 8756 43be
000003e0: b427 68be 71f2 6bbe 5948 0ebf 05d5 2e3d
000003f0: 7a14 223e 651a 3b3e 55a8 0e3d 7c73 fa3d
0.11150324 -0.3177935 -0.28358108 -0.24127159 -0.32463259 -0.16033176 0.6613713 0.09730175
0.39307526 0.2246066 -0.13810344 -0.01836569 0.6098554 0.45283628 0.15392958 -0.40610176
0.11791894 0.08470568 0.006176528 -0.09786235 0.2636662 0.17108549 0.5151865 0.64566976
0.018124646 0.7286247 0.64688766 -0.24853383 -0.32927218 -0.2790297 -0.26687807 -0.3265175
-0.3974732 -0.4145108 -0.635929 -0.03401977 0.24310884 0.15054083 -0.1312092 0.06451445
0.5815053 0.072998874 0.05115565 -0.37549785 -0.015275004 1.1504834 1.2303045 0.74317616
0.7207979 0.925902 0.53590775 1.0943937 0.5127973 0.31763363 -0.084546454 -0.1953494
0.05278726 -0.23473847 -0.25730813 0.35098672 -0.37792003 -0.3164124 -0.053489424 0.731198
-0.104318775 -0.21857083 0.22999789 -0.27678654 -0.22420593 -0.3883104 -0.43202758 -0.10042215
0.32867396 0.40398395 -0.06907709 -0.09524145 -0.08757286 0.008362687 -0.16312316 0.16877003
-0.2039562 0.7583492 0.22616437 -0.36276448 0.21499202 -0.15794347 0.037955556 0.18539411
0.264367 -0.6831599 0.23828922 0.5475617 0.5047819 -0.058299135 0.100960575 0.41580966
0.11169613 0.035326798 0.25528827 -0.4617973 0.33244893 0.3629093 -0.050196867 0.034614164
0.33927888 0.27971107 0.7220525 0.46067917 0.5795212 0.0469148 0.4295684 0.17615119
-0.050872 0.3406485 0.51668173 -0.5032785 -0.30830273 0.13284233 0.38130328 0.6617319
0.39155376 -0.06287491 0.12331025 -0.36818397 -0.82146406 -0.54058164 -0.1794561 -0.09328541
-0.15048908 0.13121851 -0.13442554 -0.15309194 -0.19118062 0.27156568 -0.25194994 -0.23160796
0.32488576 -0.36260393 -0.4138752 0.20717596 0.17137887 0.23147686 0.46710524 -0.041964542
1.0472609 0.39943102 1.013947 0.37712923 -0.42449227 0.7158092 0.543421 -0.19505847
0.56020695 -0.006957185 -0.50111806 -0.20871444 0.2690877 -0.023340905 -0.18182611 -0.41340727
-0.27503583 0.016784439 0.3699396 0.33663335 -0.046804324 0.31236032 0.6729842 0.3806095
0.018908711 0.05242665 0.004848582 0.43627235 0.37590456 0.8624461 0.26984426 0.5984598
0.39431205 0.53508687 0.4899526 0.19724707 -0.5247141 -0.12624775 -0.14389856 0.035272945
-0.5314797 -0.040729474 0.1270334 -0.24114655 -0.16458508 -0.18097964 -0.117258094 0.17662375
0.22401805 -0.22556369 -0.19177134 -0.5375688 -0.6191056 -0.6152939 -0.0086051775 0.25888276
0.07067773 0.41086775 -0.03207779 -0.47214156 0.6578094 -0.41449225 -0.3960479 0.7207363
0.87477 0.6587416 0.50593656 0.8204643 0.71158534 0.49879786 0.24264812 0.877756
0.65852803 0.73750496 0.1550148 0.30356333 0.66898906 -0.30134392 0.41394383 0.12566066
0.005156437 0.35527274 0.43825763 -0.7903891 0.16403487 0.47114706 0.17047474 0.44178468
0.29589072 -0.08817465 0.18894291 0.27797872 0.3741228 -0.32065812 -0.19473428 -0.004188178
0.05997887 -0.2439489 0.15245621 0.19379716 0.36621922 0.033670835 -0.045503486 -0.19075976
-0.22671396 -0.23041703 -0.55579144 0.04268362 0.15828124 0.18271787 0.034828503 0.12229058

conv4.bias f4 [128]
00000000: c2a1 c8bf c979 6cbd b9a4 06c0 dd74 5abf
00000010: ed70 06c0 2d33 ac3e 82e7 7ebe a7c0 eb3f
00000020: 04d3 f03e 37b0 57bf 54f9 f63f 7247 b4bf
00000030: bddd 9bbc ceb4 dabf 4dfd 1bbd 548e 68bf
00000040: b58c 2ac0 b1ee 16c0 0ef9 d1bf 7a43 0d3f
00000050: 469f b03e 7513 b5bf 4cf0 a5bd fa8e 713f
00000060: 216c 9abc e483 97bf 378c cabf 1314 2a3e
00000070: 3ebd 833f 14ae dfbf 08a7 14be 1d8e 09bf
00000080: a497 d43e 4ae3 3b3f b9a2 75be 2408 37c0
00000090: 8acc c5bf fe9d b2bf 6af2 fbbf 9118 d63e
000000a0: 0bde 34bf ee84 efbe 6c7c 1d3f 4776 a4bf
000000b0: be02 0fbf be54 c1be 6a7c 33c0 154c b43d
000000c0: 7add 8fbf 4f5d 573e 3916 1e3f 2fb4 ebbf
000000d0: ba06 de3d 06fa bcbf 5b0e 98c0 de0b e8bf
000000e0: 474a efbf 882e d83e 00fd 9abf 3693 e33e
000000f0: f1c7 0740 c19d a7bf dffd 9d3e 415e e4bf
00000100: 327f e9bf a83d 07c0 313b b53e f444 babf
00000110: e515 2c3f 3c5e 71bf 32c2 a4bf 3367 19c0
00000120: 0132 babe 2d71 35be f42e c0bf eb69 3940
00000130: 6ea0 4e3e 8225 2440 89c3 b03e ff3c 5a3e
00000140: 29cc 603f 173e 0dc0 53e3 4abe 837b 53bf
00000150: 1471 39c0 7a2d 9ebf 5a67 c3bf 8b0c 3bbf
00000160: 4d0b c6bf 4dfc 303e 31be c63e 14f5 be3d
00000170: 830c 003e 506d 54bf fc5f 243f e75b a7bf
00000180: 6283 2e40 2cde 02c0 89d1 5e3f 8a39 babf
00000190: d565 c1bf 5c7c 4c3f a2d4 1dbe d4b3 fa3b
000001a0: 170f e83f 4007 17c0 6b11 debf 6b11 05c0
000001b0: 0e2c a0bf f1d8 6b3f 21d6 c4be 61fe 99bf
000001c0: 59cc 64bf 21e7 0c3f 6730 5cbf 4574 a6bf
000001d0: 6e70 8c3e 4dcb 1cc0 426d 9abf c144 c5be
000001e0: 083c 1ebe cdde 5b3f 9653 493e 861c f53f
000001f0: 31c1 3e3e a4d7 f03e 22dc 0740 22d7 00c0
-1.5674365 -0.05773333 -2.1038039 -0.8533457 -2.1006424 0.33632794 -0.24893 1.8418168
0.47035992 -0.8425326 1.9294839 -1.4084303 -0.019026631 -1.7086427 -0.038083363 -0.90842175
-2.664838 -2.3583186 -1.640413 0.55181086 0.34496516 -1.4146563 -0.081024736 0.9435879
-0.018850388 -1.1837125 -1.582404 0.1660922 1.0292127 -1.7475 -0.14516842 -0.5373247
0.41521943 0.7339369 -0.23987855 -2.8598719 -1.5453045 -1.3954465 -1.9683354 0.41815618
-0.7065131 -0.46781105 0.6151798 -1.2848595 -0.5586356 -0.37759966 -2.8044686 0.08803574
-1.1239464 0.21031688 0.6175266 -1.8414363 0.10841127 -1.4763801 -4.7517524 -1.8128622
-1.8694543 0.42223 -1.210846 0.4444825 2.1215785 -1.3095018 0.3085775 -1.7841264
-1.8241942 -2.1131382 0.35396722 -1.4552293 0.6722091 -0.94284415 -1.2871764 -2.3969238
-0.36366275 -0.17718954 -1.5014329 2.8970897 0.20178387 2.5647893 0.3452418 0.2131233
0.87811524 -2.2069147 -0.1981328 -0.8261034 -2.8975267 -1.2357628 -1.5265915 -0.73066014
-1.5472199 0.17283745 0.3881698 0.09324089 0.12504773 -0.829793 0.6420896 -1.3074921
2.726769 -2.0448103 0.87038475 -1.454881 -1.5109202 0.7987726 -0.15413144 0.0076508317
1.8129605 -2.3598175 -1.7349066 -2.079188 -1.2513444 0.921279 -0.38444617 -1.2030755
-0.8937431 0.55040175 -0.86011356 -1.3004233 0.27429527 -2.4499085 -1.2064593 -0.38529018
-0.15452588 0.8588684 0.19660792 1.914933 0.18628384 0.4703952 2.1228108 -2.0131307

conv5_1.weight f4 [1, 128]
00000000: 9adb 64be ba08 bd3f 1920 8dbf 942e 17bf
00000010: 255b 40be 2f79 893f f4bf c53f 1b7a 2abf
00000020: 17e6 91be 763b fcbe d9ea 2ebf adf7 43be
00000030: 1767 773f bbeb ffbe b949 86bd c4e3 4cbe
00000040: 6c14 aabe cacd 8ebf a432 2abf b4a5 b93f
00000050: 9275 4c3f dae4 e7be fc4c 9d3f a53e 33bf
00000060: 67c6 e83f 4cfe debe 20d8 af3d f230 bf3f
00000070: f8be 8a3f 4361 3fbf b9de 8a3f 6f05 df3d
00000080: 4d99 11bf 7f5d 1c3f cb3b 9ebd 9169 3fc0
00000090: 3c24 52bf e0e2 e5be 31db 96be cb83 7a3f
000000a0: b56b 45be f2ef 2bbe 58d1 ad3f d3f6 4ebe
000000b0: ef43 1840 2fbc 843f a573 723f 41e3 4c3e
000000c0: e17d 03bf 9476 0fbf b05a 6f3f 89b8 b1be
000000d0: 8ff4 d83f f352 27be 00e3 7abe 5860 2ebe
000000e0: 5fae 81be 0c1a 973f c8c1 55be 178f af3f
000000f0: 1513 dcbe 1e28 57bd ff8d 863f c7a9 7cbf
00000100: 239f 11be c024 31be cfeb b13f 9321 61bf
00000110: 9c7b a63f ec64 4ebe cd52 d4be f596 c2bf
00000120: 2d56 943f 3507 a93f 158d 08bf d58b 23bf
00000130: dda2 be3f 4dba 6cbe aee5 b43f cf6b 803f
00000140: b9a6 28bf 86ed 14bf 56eb 4dbe 0daa 2bbe
00000150: e5b7 d4bf bf50 73be 5526 45bf 06bb f3be
00000160: 50f3 fcbe b13d 883f 4643 e5bd b916 1fbf
00000170: 95d5 6b3f 4d29 55be 474f 11bf ad93 43bf
00000180: b027 d4be 6f9c 443f e528 9f3e 344a dabe
00000190: ed8e 403e 3931 0140 dc66 64be 5582 cc3f
000001a0: e89f e1be 365c 35be 33c3 b0be 05d4 a1be
000001b0: a311 97bf 07c7 60be cf99 b1be b3a1 813f
000001c0: ab33 36bf fa44 833e 33d3 28bf 3cca 113f
000001d0: ab48 853f 1cab 55bf e1a9 51bf 1e88 793f
000001e0: a403 bb3f 0584 a33f 53c9 7d3f 6eee c9be
000001f0: 084b a23f 7faf 5c3f bcef 0cbf 457c 00bf
-0.22349396 1.4768288 -1.102542 -0.5905545 -0.18784769 1.0740107 1.5449204 -0.6659257
-0.28495857 -0.49264115 -0.683271 -0.1913745 0.9664168 -0.49984536 -0.0655703 -0.2000876
-0.33218706 -1.1156552 -0.6648352 1.4503694 0.798669 -0.45291787 1.2289119 -0.7001746
1.8185548 -0.43553388 0.085861444 1.4936812 1.0839529 -0.74757785 1.084922 0.10889708
-0.56874543 0.61080164 -0.07726248 -2.9908183 -0.8208654 -0.44899654 -0.29464105 0.9785735
-0.19279368 -0.1679075 1.3579512 -0.20211343 2.3791463 1.0369929 0.9470771 0.20008565
-0.5136395 -0.5604031 0.93497753 -0.34711102 1.6949633 -0.16340236 -0.24500656 -0.1702894
-0.25328347 1.1804824 -0.20874703 1.3715543 -0.42983308 -0.052528493 1.0512084 -0.9869656
-0.14220862 -0.17299175 1.3900088 -0.87941855 1.3006473 -0.20155686 -0.41469422 -1.5202318
1.1588799 1.3205324 -0.53340274 -0.6388524 1.4893452 -0.23117943 1.4132593 1.00329
-0.658794 -0.5817493 -0.20109305 -0.16764088 -1.661862 -0.23761271 -0.77011615 -0.47603625
-0.49404383 1.0643827 -0.11194472 -0.6214405 0.92122775 -0.20816536 -0.5676159 -0.7639721
-0.4143653 0.768012 0.31085888 -0.42634737 0.18804522 2.0186293 -0.22304863 1.5977274
-0.4406731 -0.17710957 -0.34523925 -0.3160707 -1.1802257 -0.21950923 -0.3468766 1.0127472
-0.7117259 0.25638562 -0.65947264 0.5694921 1.0412802 -0.8346422 -0.8189984 0.97473323
1.4610486 1.2774664 0.9913532 -0.3943972 1.2679148 0.86205286 -0.55053306 -0.5018962
